{"id":"abfb3f7a553f41bcc299e4192b097a237e2a8457","axis":"silent","repo":"tensorflow/tensorflow","sha":"abfb3f7a553f41bcc299e4192b097a237e2a8457","parsed":{"files":[{"path":"third_party/xla/third_party/triton/common/llvm_cl910324404.patch","lines":["@@ -1,7 +1,6 @@","-"," --- a/lib/Target/LLVMIR/LLVMDIUtils.cpp"," +++ b/lib/Target/LLVMIR/LLVMDIUtils.cpp","-@@ -96,7 +96,8 @@","+@@ -96,7 +96,8 @@ LLVM::DITypeAttr LLVMDIUtils::convertStructType(MLIRContext *context,","        mlir::StringAttr::get(context, \"struct\"), fileAttr, /*line=*/line,","        /*scope=*/fileAttr, /*baseType=*/nullptr, mlir::LLVM::DIFlags::Zero,","        sizeInBits, /*alignInBits=*/0, /*dataLocation=*/nullptr, /*rank=*/nullptr,","@@ -11,7 +10,7 @@","  }","  ","  LLVM::DITypeAttr LLVMDIUtils::convertArrayType(MLIRContext *context,","-@@ -116,7 +117,8 @@","+@@ -116,7 +117,8 @@ LLVM::DITypeAttr LLVMDIUtils::convertArrayType(MLIRContext *context,","        mlir::StringAttr::get(context, \"array\"), fileAttr, /*line=*/line,","        /*scope=*/fileAttr, /*baseType=*/baseType, mlir::LLVM::DIFlags::Zero,","        sizeInBits, /*alignInBits=*/0, /*dataLocation=*/nullptr, /*rank=*/nullptr,","@@ -24,7 +23,7 @@"," "," --- a/test/Conversion/nvgpu_to_llvm.mlir"," +++ b/test/Conversion/nvgpu_to_llvm.mlir","-@@ -81,9 +81,9 @@","+@@ -81,9 +81,9 @@ module attributes {\"ttg.num-ctas\" = 1 : i32, \"ttg.num-warps\" = 4 : i32, ttg.shar","    //      CHECK:    %[[A:.+]] = llvm.inline_asm has_side_effects","    // CHECK-SAME:    \"@$0 tcgen05.alloc.cta_group::1.sync.aligned.shared::cta.b32 [$1], 128;\", \"b,r\" %[[PRED]], %[[SHMEM]] : (i1, !llvm.ptr<3>) -> !llvm.void","    //      CHECK:    %[[AR:.+]] = llvm.load %[[SHMEM]] : !llvm.ptr<3> -> i32","@@ -39,7 +38,7 @@"," "," --- a/test/Conversion/tritongpu_to_llvm.mlir"," +++ b/test/Conversion/tritongpu_to_llvm.mlir","-@@ -848,7 +848,7 @@","+@@ -848,7 +848,7 @@ module attributes {\"ttg.num-ctas\" = 1 : i32, \"ttg.num-warps\" = 4 : i32} {","    tt.func @convert_layout_blocked_blocked(%arg0: tensor<32x32xf32, #blocked0>) {","      // CHECK: llvm.mlir.addressof @global_smem","      // CHECK-COUNT-8: llvm.store","@@ -48,7 +47,7 @@","      // CHECK-COUNT-8: llvm.load","      %0 = ttg.convert_layout %arg0 : tensor<32x32xf32, #blocked0> -> tensor<32x32xf32, #blocked1>","      tt.return","-@@ -866,7 +866,7 @@","+@@ -866,7 +866,7 @@ module attributes {\"ttg.num-ctas\" = 1 : i32, \"ttg.num-warps\" = 4 : i32} {","      // CHECK: llvm.mlir.addressof @global_smem","      // CHECK: llvm.store","      // CHECK: llvm.store","@@ -57,7 +56,7 @@","      // CHECK: llvm.load","      // CHECK: llvm.load","      %0 = ttg.convert_layout %arg0 : tensor<32x32xf32, #blocked0> -> tensor<32x32xf32, #blocked1>","-@@ -1062,7 +1062,7 @@","+@@ -1062,7 +1062,7 @@ module attributes {\"ttg.num-ctas\" = 1 : i32, \"ttg.num-warps\" = 4 : i32} {","    // CHECK-LABEL: convert_layout_transpose","    tt.func @convert_layout_transpose(%arg0: tensor<128x128xf8E5M2, #blocked>) {","      // CHECK-COUNT-128: llvm.store {{.*}} vector<1xi8>","@@ -66,7 +65,7 @@","      // CHECK-COUNT-32: llvm.load {{.*}} vector<4xi8>","      %0 = ttg.convert_layout %arg0 : tensor<128x128xf8E5M2, #blocked> -> tensor<128x128xf8E5M2, #blocked1>","      tt.return","-@@ -1079,7 +1079,7 @@","+@@ -1079,7 +1079,7 @@ module attributes {\"ttg.num-ctas\" = 1 : i32, \"ttg.num-warps\" = 4 : i32} {","    tt.func @convert_layout_mmav2_blocked(%arg0: tensor<32x16xf32, #mma>) {","      // CHECK: llvm.store","      // CHECK: llvm.store","@@ -75,7 +74,7 @@","      // CHECK: llvm.load","      %0 = ttg.convert_layout %arg0 : tensor<32x16xf32, #mma> -> tensor<32x16xf32, #blocked0>","      tt.return","-@@ -1273,7 +1273,7 @@","+@@ -1273,7 +1273,7 @@ module attributes {\"ttg.num-ctas\" = 1 : i32, \"ttg.num-warps\" = 8 : i32} {","    // CHECK-LABEL: convert_layout_mmav3_transpose","    tt.func @convert_layout_mmav3_transpose(%arg0: tensor<128x256xf8E5M2, #mma>) {","      // CHECK-COUNT-8: llvm.store {{.*}} : vector<4xi32>","@@ -84,7 +83,7 @@","      %0 = ttg.convert_layout %arg0 : tensor<128x256xf8E5M2, #mma> -> tensor<128x256xf8E5M2, #blocked>","      tt.return","    }","-@@ -1370,7 +1370,7 @@","+@@ -1370,7 +1370,7 @@ module attributes {\"ttg.num-ctas\" = 1 : i32, \"ttg.num-warps\" = 8 : i32} {","    tt.func @linear_layout_with_multiple_iterations(%src: tensor<8x4xbf16, #linear>) {","      %cvt = ttg.convert_layout %src : tensor<8x4xbf16, #linear> -> tensor<8x4xbf16, #linear1>","      // CHECK-COUNT-1: llvm.store {{.*}} : vector<4xi16>","@@ -93,7 +92,7 @@","      // CHECK-COUNT: llvm.load{{.*}}->vector<2xi16>","      tt.return","    }","-@@ -1540,7 +1540,7 @@","+@@ -1540,7 +1540,7 @@ module attributes {\"ttg.num-ctas\" = 1 : i32, \"ttg.num-warps\" = 4 : i32, \"ttg.tar","    tt.func @atomic_add_use_result_broadcasting(%arg0 : tensor<16x!tt.ptr<f32>, #blocked0>, %arg1 : tensor<16xi1, #blocked0>, %arg2 : tensor<16xf32, #blocked0>) {","      %0 = tt.atomic_rmw fadd, relaxed, sys, %arg0, %arg2, %arg1 : (tensor<16x!tt.ptr<f32>, #blocked0>, tensor<16xf32, #blocked0>, tensor<16xi1, #blocked0>) -> tensor<16xf32, #blocked0>","      // CHECK: st.shared","@@ -102,7 +101,7 @@","      // CHECK: llvm.load","      tt.store %arg0, %0 : tensor<16x!tt.ptr<f32>, #blocked0>","      tt.return","-@@ -1555,7 +1555,7 @@","+@@ -1555,7 +1555,7 @@ module attributes {\"ttg.num-ctas\" = 1 : i32, \"ttg.num-warps\" = 4 : i32, \"ttg.tar","    tt.func @atomic_add_use_result_no_broadcasting(%arg0 : tensor<128x!tt.ptr<f32>, #blocked0>, %arg1 : tensor<128xi1, #blocked0>, %arg2 : tensor<128xf32, #blocked0>) {","      %0 = tt.atomic_rmw fadd, relaxed, sys, %arg0, %arg2, %arg1 : (tensor<128x!tt.ptr<f32>, #blocked0>, tensor<128xf32, #blocked0>, tensor<128xi1, #blocked0>) -> tensor<128xf32, #blocked0>","      // CHECK-NOT: st.shared","@@ -111,7 +110,7 @@","      // CHECK-NOT: llvm.load","      tt.store %arg0, %0 : tensor<128x!tt.ptr<f32>, #blocked0>","      tt.return","-@@ -1842,7 +1842,7 @@","+@@ -1842,7 +1842,7 @@ module attributes {\"ttg.num-ctas\" = 1 : i32, \"ttg.num-warps\" = 1 : i32} {","  // CHECK-LABEL: sum_reduction","  //       CHECK:  %[[M:.+]] = llvm.mlir.constant(-1 : i32) : i32","  //       CHECK:   nvvm.redux.sync  add %{{.*}}, %[[M]]","@@ -120,7 +119,7 @@","  //       CHECK:   nvvm.shfl.sync bfly","  //       CHECK:   nvvm.shfl.sync bfly","  #blocked = #ttg.blocked<{sizePerThread = [1, 4], threadsPerWarp = [1, 32], warpsPerCTA = [1, 4], order = [1, 0]}>","-@@ -2357,7 +2357,7 @@","+@@ -2369,7 +2369,7 @@ module attributes {\"ttg.num-ctas\" = 1 : i32, \"ttg.num-warps\" = 4 : i32} {","  // CHECK-DAG: llvm.mlir.global internal constant @assertFile_0(\"inner_call\\00\") {addr_space = 0 : i32}","  // CHECK-DAG: llvm.mlir.global internal constant @assertMessage_0(\"assert text\\00\") {addr_space = 0 : i32}","  // CHECK: llvm.call @__assertfail","@@ -129,7 +128,7 @@","  module attributes {\"ttg.num-ctas\" = 1 : i32, \"ttg.num-warps\" = 4 : i32, ttg.target = \"cuda:90\", \"ttg.threads-per-warp\" = 32 : i32} {","    tt.func public @add_kernel(%arg0: tensor<1xi1, #blocked>) {","      tt.assert %arg0, \"assert text\" : tensor<1xi1, #blocked> loc(#loc5)","-@@ -2413,7 +2413,7 @@","+@@ -2425,7 +2425,7 @@ tt.func @gather_in_shared(%arg0: tensor<16x4xi32, #blocked1>, %arg1: tensor<8x4x","    // CHECK: [[SMEM_BASE:%.*]] = llvm.mlir.addressof @global_smem","    // CHECK-NEXT: [[SMEM:%.*]] = llvm.getelementptr [[SMEM_BASE]]","    // CHECK: store","@@ -138,7 +137,7 @@","  ","    // CHECK: [[I0:%.*]] = llvm.extractvalue %arg0[0]","  ","-@@ -2446,7 +2446,7 @@","+@@ -2458,7 +2458,7 @@ tt.func @gather_in_shared_dot_input(%arg0: tensor<16x4xi32, #blocked>, %arg1: te","    // CHECK: [[SMEM_BASE:%.*]] = llvm.mlir.addressof @global_smem","    // CHECK-NEXT: [[SMEM:%.*]] = llvm.getelementptr [[SMEM_BASE]]","    // CHECK: insertelement [[S0]]","@@ -150,7 +149,7 @@"," "," --- a/test/Conversion/tritongpu_to_llvm_blackwell.mlir"," +++ b/test/Conversion/tritongpu_to_llvm_blackwell.mlir","-@@ -11,7 +11,7 @@","+@@ -11,7 +11,7 @@ module attributes {\"ttg.num-ctas\" = 1 : i32, \"ttg.num-warps\" = 8 : i32} {","    // CHECK: %[[C0:.+]] = llvm.mlir.constant(0 : i32) : i32","    // CHECK: %[[P0:.+]] = llvm.icmp \"eq\" %[[WID]], %[[C0]] : i32","    // CHECK: %[[P1:.+]] = llvm.and %{{.*}}, %[[P0]]  : i1","@@ -159,7 +158,7 @@","    // CHECK-NEXT: llvm.cond_br %[[P1]]","    // CHECK: %[[E:.+]] = nvvm.elect.sync -> i1","    // CHECK-COUNT-8: @$5 tcgen05.mma.cta_group::1.kind::f16 [ $0 + 0 ], $1, $2, $3, $4;\", \"r,l,l,r,b,b\" %{{.+}}, %{{.+}}, %{{.+}}, %{{.+}}, %{{.+}}, %[[E]]","-@@ -189,7 +189,7 @@","+@@ -189,7 +189,7 @@ module attributes {\"ttg.num-ctas\" = 1 : i32, \"ttg.num-warps\" = 4 : i32} {","    // CHECK: %[[TMEM_SUBSLICE_BASE:.+]] = llvm.ptrtoint %[[TMEM_SUBSLICE_PTR]] : !llvm.ptr<3> to i32","    // CHECK-COUNT-4: @$5 tcgen05.mma.cta_group::1.kind::f16 [ $0 + 0 ], $1, $2, $3, $4;\", \"r,l,l,r,b,b\" %[[TMEM_SUBSLICE_BASE]]","    // CHECK-COUNT-4: @$5 tcgen05.mma.cta_group::1.kind::f16 [ $0 + 128 ], $1, $2, $3, $4;\", \"r,l,l,r,b,b\" %[[TMEM_SUBSLICE_BASE]]","@@ -168,7 +167,7 @@","    tt.func @tc_gen5_mma_subslice_acc(%a: !ttg.memdesc<256x64xf16, #shared, #ttg.shared_memory>,","                                      %b: !ttg.memdesc<64x64xf16, #shared1, #ttg.shared_memory>,","                                      %c: !ttg.memdesc<256x128xf32, #tmem, #ttng.tensor_memory, mutable>) {","-@@ -790,7 +790,7 @@","+@@ -790,7 +790,7 @@ module attributes {\"ttg.num-ctas\" = 1 : i32, \"ttg.num-warps\" = 8 : i32} {","  module attributes {\"ttg.num-warps\" = 1 : i32} {","  // CHECK-LABEL: @tc_gen5_commit","  tt.func @tc_gen5_commit(%arg0: !ttg.memdesc<1xi64, #shared, #smem, mutable>, %pred: i1) {","@@ -177,7 +176,7 @@","    // CHECK: [[ZERO:%.*]] = llvm.mlir.constant(0 : i32)","    // CHECK: [[IS_WARP_0:%.*]] = llvm.icmp \"eq\" [[ZERO]], [[ZERO]]","    // CHECK: [[ELECT:%.*]] = nvvm.elect.sync","-@@ -886,7 +886,7 @@","+@@ -886,7 +886,7 @@ tt.func @load_store_x1_unpacked(%arg0: !ttg.memdesc<128x2xf16, #tmem_x1_unpacked","  // CHECK-LABEL: max_reduction","  //       CHECK:  %[[M:.+]] = llvm.mlir.constant(-1 : i32) : i32","  //       CHECK:   nvvm.redux.sync  fmax %{{.*}}, %[[M]] {nan = true} : f32 -> f32","@@ -186,7 +185,7 @@","  //       CHECK:   nvvm.shfl.sync bfly","  //       CHECK:   nvvm.shfl.sync bfly","  #blocked = #ttg.blocked<{sizePerThread = [1, 4], threadsPerWarp = [1, 32], warpsPerCTA = [1, 4], order = [1, 0]}>","-@@ -906,7 +906,7 @@","+@@ -906,7 +906,7 @@ module attributes {\"ttg.target\" = \"cuda:100\", \"ttg.num-ctas\" = 1 : i32, \"ttg.num","  // CHECK-LABEL: maxnum_reduction","  //       CHECK:  %[[M:.+]] = llvm.mlir.constant(-1 : i32) : i32","  //       CHECK:   nvvm.redux.sync  fmax %{{.*}}, %[[M]] : f32 -> f32","@@ -210,7 +209,7 @@"," "," --- a/test/Conversion/tritongpu_to_llvm_hopper.mlir"," +++ b/test/Conversion/tritongpu_to_llvm_hopper.mlir","-@@ -302,11 +302,11 @@","+@@ -302,11 +302,11 @@ module attributes {\"ttg.target\" = \"cuda:90\", \"ttg.num-ctas\" = 1 : i32, \"ttg.num-","  module attributes {\"ttg.target\" = \"cuda:90\", \"ttg.num-ctas\" = 1 : i32, \"ttg.num-warps\" = 8 : i32, \"ttg.threads-per-warp\" = 32 : i32} {","    tt.func @convert_mma_to_blocked(%a: tensor<128x256xf16, #mma>) {","      // CHECK-COUNT-8: llvm.store","@@ -225,7 +224,7 @@","      // CHECK-COUNT-8: nvvm.ldmatrix","      %c = ttg.convert_layout %a : tensor<128x256xf16, #mma> -> tensor<128x256xf16, #blocked>","      tt.return","-@@ -320,19 +320,19 @@","+@@ -320,19 +320,19 @@ module attributes {\"ttg.target\" = \"cuda:90\", \"ttg.num-ctas\" = 1 : i32, \"ttg.num-","  module attributes {\"ttg.target\" = \"cuda:90\", \"ttg.num-ctas\" = 1 : i32, \"ttg.num-warps\" = 8 : i32, \"ttg.threads-per-warp\" = 32 : i32} {","    tt.func @convert_mma_to_blocked(%a: tensor<128x64xbf16, #linear>) {","      // CHECK: llvm.store {{.*}} : vector<4xi32>","@@ -252,7 +251,7 @@","      // CHECK: llvm.load {{.*}} -> vector<4xi32>","      // CHECK-NOT: llvm.store","      // CHECK-NOT: llvm.load","-@@ -350,19 +350,19 @@","+@@ -350,19 +350,19 @@ module attributes {\"ttg.num-ctas\" = 1 : i32, \"ttg.num-warps\" = 4 : i32} {","    // CHECK-LABEL: convert_blocked_to_dot_rhs","    tt.func @convert_blocked_to_dot_rhs(%a: tensor<64x64xf16, #blocked>) {","      // CHECK-COUNT-1: llvm.store","@@ -282,7 +281,7 @@"," "," --- a/test/Conversion/tritoninstrument_to_llvm.mlir"," +++ b/test/Conversion/tritoninstrument_to_llvm.mlir","-@@ -38,7 +38,7 @@","+@@ -38,7 +38,7 @@ tt.func private @experimental_buffer_descriptors_shared() {","  module attributes {\"ttg.num-warps\" = 4 : i32, ttg.target = \"cuda:90\"} {","  // CHECK-LABEL: @experimental_lock_acquire","  // CHECK: atom.global.acquire.gpu.cas.b32","@@ -291,7 +290,7 @@","  tt.func private @experimental_lock_acquire(","    %lock: !tt.ptr<i32>,","    %pred: i1","-@@ -55,7 +55,7 @@","+@@ -55,7 +55,7 @@ tt.func private @experimental_lock_acquire(","  #smem = #ttg.shared_memory","  module attributes {\"ttg.num-warps\" = 4 : i32, ttg.target = \"cuda:90\"} {","  // CHECK-LABEL: @experimental_lock_release","@@ -303,7 +302,7 @@"," "," --- a/test/Conversion/tritonnvidiagpu_to_llvm.mlir"," +++ b/test/Conversion/tritonnvidiagpu_to_llvm.mlir","-@@ -80,7 +80,7 @@","+@@ -80,7 +80,7 @@ module attributes {\"ttg.num-ctas\" = 1 : i32, \"ttg.num-warps\" = 4 : i32} {","    tt.func @arrive_barrier(%alloc: !ttg.memdesc<1xi64, #shared0, #smem>) {","      // CHECK-NEXT: [[BASE:%.*]] = llvm.extractvalue %arg0[0] : !llvm.struct<(ptr<3>, i32)>","      // CHECK-NEXT: llvm.extractvalue %arg0[1] : !llvm.struct<(ptr<3>, i32)>","@@ -312,7 +311,7 @@","      // CHECK-NEXT: [[TID:%.*]] = nvvm.read.ptx.sreg.tid.x","      // CHECK-NEXT: [[C127:%.*]] = llvm.mlir.constant(127 : i32)","      // CHECK-NEXT: [[RTID:%.*]] = llvm.and [[TID]], [[C127]]","-@@ -95,7 +95,7 @@","+@@ -95,7 +95,7 @@ module attributes {\"ttg.num-ctas\" = 1 : i32, \"ttg.num-warps\" = 4 : i32} {","    tt.func @arrive_barrier_pred(%alloc: !ttg.memdesc<1xi64, #shared0, #smem>, %pred: i1) {","      // CHECK-NEXT: [[BASE:%.*]] = llvm.extractvalue %arg0[0] : !llvm.struct<(ptr<3>, i32)>","      // CHECK-NEXT: llvm.extractvalue %arg0[1] : !llvm.struct<(ptr<3>, i32)>","@@ -321,7 +320,7 @@","      // CHECK-NEXT: [[TID:%.*]] = nvvm.read.ptx.sreg.tid.x","      // CHECK-NEXT: [[C127:%.*]] = llvm.mlir.constant(127 : i32)","      // CHECK-NEXT: [[RTID:%.*]] = llvm.and [[TID]], [[C127]]","-@@ -115,7 +115,7 @@","+@@ -115,7 +115,7 @@ module attributes {\"ttg.num-ctas\" = 1 : i32, \"ttg.num-warps\" = 4 : i32} {","  module attributes {\"ttg.num-ctas\" = 2 : i32, \"ttg.num-warps\" = 4 : i32} {","    // CHECK-LABEL: arrive_barrier_cluster_broadcast","    tt.func @arrive_barrier_cluster_broadcast(%alloc: !ttg.memdesc<1xi64, #shared0, #smem>) {","@@ -330,7 +329,7 @@","      // CHECK-NOT: nvg.cluster_id","      // CHECK: llvm.ptrtoint","      // CHECK: llvm.and","-@@ -356,7 +356,7 @@","+@@ -371,7 +371,7 @@ module attributes {\"ttg.num-ctas\" = 1 : i32, \"ttg.num-warps\" = 4 : i32} {","  #smem = #ttg.shared_memory","  module attributes {\"ttg.num-ctas\" = 1 : i32, \"ttg.num-warps\" = 4 : i32} {","    // CHECK-LABEL: expect_barrier","@@ -339,7 +338,7 @@","    // CHECK: [[TID:%.*]] = nvvm.read.ptx.sreg.tid.x","    // CHECK: [[C127:%.*]] = llvm.mlir.constant(127 : i32)","    // CHECK: [[RTID:%.*]] = llvm.and [[TID]], [[C127]]","-@@ -376,7 +376,7 @@","+@@ -391,7 +391,7 @@ module attributes {\"ttg.num-ctas\" = 1 : i32, \"ttg.num-warps\" = 4 : i32} {","  #smem = #ttg.shared_memory","  module attributes {\"ttg.num-ctas\" = 2 : i32, \"ttg.num-warps\" = 4 : i32} {","    // CHECK-LABEL: expect_barrier_cluster_broadcast","@@ -351,7 +350,7 @@"," "," --- a/test/Conversion/warp_specialize_to_llvm.mlir"," +++ b/test/Conversion/warp_specialize_to_llvm.mlir","-@@ -20,27 +20,27 @@","+@@ -20,27 +20,27 @@ llvm.func @rewrite_barriers() attributes {allocation.offset = 32 : i32} {","  ","    // CHECK: bb{{[0-9]+}}:","    // CHECK-NEXT: nvvm.barrier id = [[C0]] number_of_threads = [[C128]]","@@ -385,7 +384,7 @@","    llvm.return","  }","  ","-@@ -104,7 +104,7 @@","+@@ -104,7 +104,7 @@ llvm.func internal @inner_func_nw4() attributes {\"ws_num_warps\" = 4 : i32} {","    // CHECK: [[C128:%.*]] = llvm.mlir.constant(128 : i32)","    // CHECK: nvvm.barrier id = %arg0 number_of_threads = [[C128]]","    // CHECK: llvm.call @inner_func_nw4_ws(%arg0) : (i32) -> ()","@@ -394,7 +393,7 @@","    llvm.call @inner_func_nw4() : () -> ()","    llvm.return","  }","-@@ -113,14 +113,14 @@","+@@ -113,14 +113,14 @@ llvm.func internal @inner_func_nw4() attributes {\"ws_num_warps\" = 4 : i32} {","  llvm.func internal @inner_func_nw2(%arg0: f32 {some.attr = \"some_value\"}) attributes {\"ws_num_warps\" = 2 : i32} {","    // CHECK: [[C64:%.*]] = llvm.mlir.constant(64 : i32)","    // CHECK: nvvm.barrier id = %arg1 number_of_threads = [[C64]]","@@ -411,7 +410,7 @@","    llvm.return","  }","  ","-","+ "," --- a/test/TritonGPU/atomic-cas.mlir"," +++ b/test/TritonGPU/atomic-cas.mlir"," @@ -2,7 +2,7 @@","@@ -426,7 +425,7 @@"," "," --- a/third_party/nvidia/lib/NVGPUToLLVM/NVGPUToLLVMPass.cpp"," +++ b/third_party/nvidia/lib/NVGPUToLLVM/NVGPUToLLVMPass.cpp","-@@ -532,9 +532,9 @@","+@@ -532,9 +532,9 @@ static Value createTMAlloc(IRRewriter &rewriter, LLVM::LLVMFuncOp func,","        {ptxBuilder.newOperand(pred, \"b\"), ptxBuilder.newOperand(sharedMem, \"r\")},","        /*onlyAttachMLIRArgs=*/true);","    ptxBuilder.launch(rewriter, loc, void_ty(func->getContext()));","@@ -438,7 +437,7 @@","    address = b.inttoptr(ptr_ty(func.getContext(), 6), address);","    return address;","  }","-@@ -559,7 +559,7 @@","+@@ -559,7 +559,7 @@ void freeTMAlloc(LLVM::LLVMFuncOp func, Value alloc, size_t size, Value pred,","        NVVM::ClusterArriveOp::create(b, loc, UnitAttr::get(ctx));","        NVVM::ClusterWaitOp::create(b, loc, UnitAttr::get(ctx));","      } else {","@@ -450,7 +449,7 @@"," "," --- a/third_party/nvidia/lib/TritonNVIDIAGPUToLLVM/ConvertWarpSpecializeToLLVM.cpp"," +++ b/third_party/nvidia/lib/TritonNVIDIAGPUToLLVM/ConvertWarpSpecializeToLLVM.cpp","-@@ -45,7 +45,7 @@","+@@ -45,7 +45,7 @@ public:","        : numThreadsPerWarp(numThreadsPerWarp) {}","  ","    bool isBarrierOp(Operation *op) const override {"],"additions":37,"deletions":38,"truncated":false},{"path":"third_party/xla/third_party/triton/common/llvm_cl914652433.patch","lines":["@@ -1,6 +1,6 @@"," --- a/third_party/amd/lib/Analysis/RangeAnalysis.cpp"," +++ b/third_party/amd/lib/Analysis/RangeAnalysis.cpp","-@@ -772,7 +772,7 @@","+@@ -772,7 +772,7 @@ void TritonIntegerRangeAnalysis::visitRegionSuccessors(","        } else {","          // Else, propagate pred operands.","          auto operLat = *getLatticeElementFor(point, oper);"],"additions":1,"deletions":1,"truncated":false},{"path":"third_party/xla/third_party/triton/common/revert3de9d04.patch","lines":["@@ -0,0 +1,135 @@","+# Tracking bug: b/515691849","+--- a/lib/Analysis/Utility.cpp","+@@ -1197,7 +1197,7 @@","+     if (k < 256 / aElemTy.getIntOrFloatBitWidth())","+       return false;","+     if (!(retShapePerCTA[rank - 2] % 64 == 0 &&","+-          retShapePerCTA[rank - 1] % 8 == 0))","++          retShapePerCTA[rank - 1] % 16 == 0))","+       return false;","+     if (aElemTy.isF64() || bElemTy.isF64() ||","+         retType.getElementType().isF64()) {","+@@ -1222,7 +1222,7 @@","+     if (rank == 3)","+       return false;","+     if (!(numWarps % 4 == 0 && retShapePerCTA[rank - 2] % 64 == 0 &&","+-          retShapePerCTA[rank - 1] % 8 == 0 &&","++          retShapePerCTA[rank - 1] % 16 == 0 &&","+           (llvm::isa<Float8E5M2Type, Float8E4M3FNType>(aElemTy) ||","+            aElemTy.isInteger(8) || aElemTy.isF16() || aElemTy.isBF16() ||","+            aElemTy.isF32()))) {","+","+--- a/python/test/unit/language/test_core.py","+@@ -3380,10 +3380,7 @@","+     if not is_cuda():","+         return []","+     return [(2, 4, 32, 1, False, False, 'None', 'ieee', 'float16', 'float32', 1, None),","+-            (1, 2, 32, 1, False, False, 'None', 'ieee', 'float8e5', 'float32', 1, None),","+-            # N=8: TF32 K=8 (wgmma.m64n8k8, sm90+) and FP16 K=16 (wgmma.m64n8k16)","+-            (64, 8, 8, 4, False, False, 'None', 'tf32', 'float32', 'float32', 1, None),","+-            (64, 8, 16, 4, False, False, 'None', 'ieee', 'float16', 'float32', 1, None)]","++            (1, 2, 32, 1, False, False, 'None', 'ieee', 'float8e5', 'float32', 1, None)]","+ ","+ ","+ @pytest.mark.interpreter","+@@ -3414,8 +3411,7 @@","+             pytest.skip(f\"input_precision {input_precision} is not supported in the interpreter\")","+     else:","+         if not is_hip() and K < 16:","+-            tf32_n8 = (in_dtype == 'float32' and N == 8 and K == 8 and input_precision == 'tf32')","+-            if in_dtype != 'float64' and not tf32_n8:","++            if in_dtype != 'float64':","+                 pytest.skip(\"small dots are supported only on HIP at the moment\")","+         if is_cuda():","+             capability = torch.cuda.get_device_capability()","+@@ -3617,21 +3613,19 @@","+     # make sure ld/st are vectorized","+     ptx = pgm.asm['ptx']","+ ","+-    # XXX: skip small sizes because they are not vectorized; with runtime","+-    # strides, v4 needs the contiguous dim >= 16 (K for loads, N for stores).","+-    enough_work = (M * N // (num_warps * 32) >= 4) and (K > 16 or N > 16 or M > 16)","+-    if enough_work and K >= 16:","+-        if 'float64' in in_dtype:","+-            assert 'ld.global.v2.b64' in ptx","+-        else:","+-            assert 'ld.global.v4' in ptx","+-    if enough_work and N >= 16:","+-        if 'float8' in in_dtype:","+-            assert 'st.global.v2' in ptx","+-        elif 'float64' in in_dtype:","+-            assert 'st.global.v2.b64' in ptx","+-        else:","+-            assert 'st.global.v4' in ptx","++    if (K > 16 or N > 16 or M > 16) and (M * N // (num_warps * 32) >= 4):","++        if K >= 16:","++            if 'float64' in in_dtype:","++                assert 'ld.global.v2.b64' in ptx","++            else:","++                assert 'ld.global.v4' in ptx","++        if N >= 16:","++            if 'float8' in in_dtype:","++                assert 'st.global.v2' in ptx","++            elif 'float64' in in_dtype:","++                assert 'st.global.v2.b64' in ptx","++            else:","++                assert 'st.global.v4' in ptx","+ ","+     is_tcgen5 = (capability[0] == 10) and (num_warps % 4) == 0 and (M % 64) == 0 and (N % 8) == 0","+ ","+","+--- a/test/TritonGPU/accelerate-matmul.mlir","+@@ -892,37 +892,3 @@","+     tt.return %d : tensor<128x256xf64, #blocked>","+   }","+ }","+-","+-// -----","+-","+-// Verify TF32 dot with N=8, K=8 (native WGMMA tile) selects MMAv3 on sm90.","+-// CHECK: #[[$MMA:.+]] = #ttg.nvidia_mma<{versionMajor = 3, versionMinor = 0, warpsPerCTA = [4, 1], instrShape = [16, 8, 8]}>","+-#blocked_tf32_n8 = #ttg.blocked<{sizePerThread = [2, 2], threadsPerWarp = [8, 4], warpsPerCTA = [4, 1], order = [1, 0]}>","+-module attributes {\"ttg.target\" = \"cuda:90\", \"ttg.num-ctas\" = 1 : i32, \"ttg.num-warps\" = 4 : i32, \"ttg.threads-per-warp\" = 32 : i32} {","+-  // CHECK-LABEL: tf32_n8k8_sm90","+-  tt.func public @tf32_n8k8_sm90(","+-      %a: tensor<64x8xf32, #ttg.dot_op<{opIdx = 0, parent = #blocked_tf32_n8}>>,","+-      %b: tensor<8x8xf32, #ttg.dot_op<{opIdx = 1, parent = #blocked_tf32_n8}>>) -> tensor<64x8xf32, #blocked_tf32_n8> {","+-    %cst = arith.constant dense<0.000000e+00> : tensor<64x8xf32, #blocked_tf32_n8>","+-    // CHECK: ttng.warp_group_dot {{.*}} -> tensor<64x8xf32, #[[$MMA]]>","+-    %d = tt.dot %a, %b, %cst, inputPrecision = tf32 : tensor<64x8xf32, #ttg.dot_op<{opIdx = 0, parent = #blocked_tf32_n8}>> * tensor<8x8xf32, #ttg.dot_op<{opIdx = 1, parent = #blocked_tf32_n8}>> -> tensor<64x8xf32, #blocked_tf32_n8>","+-    tt.return %d : tensor<64x8xf32, #blocked_tf32_n8>","+-  }","+-}","+-","+-// -----","+-","+-// Verify FP16 dot with N=8, K=16 (native WGMMA tile) selects MMAv3 on sm90.","+-// CHECK: #[[$MMA:.+]] = #ttg.nvidia_mma<{versionMajor = 3, versionMinor = 0, warpsPerCTA = [4, 1], instrShape = [16, 8, 16]}>","+-#blocked_fp16_n8 = #ttg.blocked<{sizePerThread = [2, 2], threadsPerWarp = [8, 4], warpsPerCTA = [4, 1], order = [1, 0]}>","+-module attributes {\"ttg.target\" = \"cuda:90\", \"ttg.num-ctas\" = 1 : i32, \"ttg.num-warps\" = 4 : i32, \"ttg.threads-per-warp\" = 32 : i32} {","+-  // CHECK-LABEL: fp16_n8k16_sm90","+-  tt.func public @fp16_n8k16_sm90(","+-      %a: tensor<64x16xf16, #ttg.dot_op<{opIdx = 0, parent = #blocked_fp16_n8}>>,","+-      %b: tensor<16x8xf16, #ttg.dot_op<{opIdx = 1, parent = #blocked_fp16_n8}>>) -> tensor<64x8xf32, #blocked_fp16_n8> {","+-    %cst = arith.constant dense<0.000000e+00> : tensor<64x8xf32, #blocked_fp16_n8>","+-    // CHECK: ttng.warp_group_dot {{.*}} -> tensor<64x8xf32, #[[$MMA]]>","+-    %d = tt.dot %a, %b, %cst : tensor<64x16xf16, #ttg.dot_op<{opIdx = 0, parent = #blocked_fp16_n8}>> * tensor<16x8xf16, #ttg.dot_op<{opIdx = 1, parent = #blocked_fp16_n8}>> -> tensor<64x8xf32, #blocked_fp16_n8>","+-    tt.return %d : tensor<64x8xf32, #blocked_fp16_n8>","+-  }","+-}","+","+--- a/third_party/nvidia/backend/compiler.py","+@@ -29,8 +29,6 @@","+             return (1, 1, 32)","+         elif lhs_bitwidth == 64:","+             return (1, 1, 4)","+-        elif lhs_bitwidth == 32:","+-            return (1, 1, 8)","+         else:","+             return (1, 1, 16)","+ ","+"],"additions":131,"deletions":0,"truncated":false},{"path":"third_party/xla/third_party/triton/common/series.bzl","lines":["@@ -27,7 +27,6 @@ common_patch_list = [","     \"//third_party/triton:common/disable_amd_test.patch\",","     \"//third_party/triton:common/wgmma_pipeline_fix.patch\",","     \"//third_party/triton:common/nvdisasm_bin_path.patch\",","-    \"//third_party/triton:common/stage_and_cluster_map.patch\",","     \"//third_party/triton:common/assert_fail.patch\",","     \"//third_party/triton:common/llvm_cl900404532.patch\",","     \"//third_party/triton:common/llvm_cl902211192.patch\",","@@ -36,5 +35,6 @@ common_patch_list = [","     \"//third_party/triton:common/check_null_encoding.patch\",","     \"//third_party/triton:common/llvm_cl910324404.patch\",","     \"//third_party/triton:common/llvm_cl914652433.patch\",","+    \"//third_party/triton:common/revert3de9d04.patch\",","     # Add new patches just above this line"," ]"],"additions":1,"deletions":1,"truncated":false},{"path":"third_party/xla/third_party/triton/common/stage_and_cluster_map.patch","lines":["@@ -1,28 +0,0 @@","-+++ b/lib/Dialect/TritonGPU/Transforms/Pipeliner/Schedule.cpp","-@@ -105,17 +105,21 @@ void tt::CoarseSchedule::shrinkToFit() {","- // split if the op is the first operation in the cluster.","- tt::CoarseSchedule::Cluster","- tt::CoarseSchedule::splitClusterBefore(Operation *op, scf::ForOp forOp) {","--  auto cluster = opToStageAndCluster[op].second;","-+  auto it = opToStageAndCluster.find(op);","-+  assert(it != opToStageAndCluster.end() &&","-+         \"Operation not found in the schedule\");","-+  auto cluster = it->second.second;","-   std::optional<tt::CoarseSchedule::Cluster> newCluster = std::nullopt;","-   for (auto &_op : forOp.getBody()->without_terminator()) {","-     if (&_op == op) {","-       break;","-     }","--    if (opToStageAndCluster[&_op].second == cluster) {","-+    auto it_op = opToStageAndCluster.find(&_op);","-+    if (it_op != opToStageAndCluster.end() && it_op->second.second == cluster) {","-       if (!newCluster) {","-         newCluster = clusters.newBefore(cluster);","-       }","--      opToStageAndCluster[&_op].second = *newCluster;","-+      it_op->second.second = *newCluster;","-     }","-   }","-   return cluster;","-"],"additions":0,"deletions":27,"truncated":false},{"path":"third_party/xla/third_party/triton/oss_only/build_files.patch","lines":["@@ -5,7 +5,7 @@ diff --git b/BUILD b/BUILD"," new file mode 100644"," --- /dev/null"," +++ b/BUILD","-@@ -0,0 +1,1279 @@","+@@ -0,0 +1,1280 @@"," +# This package imports OpenAI's Triton (https://github.com/triton-lang/triton)."," +"," +# copybara:uncomment load(\"@rules:copybara.bzl\", \"copybara_config_test\")","@@ -968,6 +968,7 @@ new file mode 100644"," +        \":TritonGPUTransforms\","," +        \":TritonToTritonGPUPasses\","," +        \":TritonTools\",","++        \":TritonTransforms\","," +        \":triton_conversion_triton_to_triton_gpu_passes_inc_gen\","," +        \"@llvm-project//mlir:ArithDialect\","," +        \"@llvm-project//mlir:ControlFlowDialect\",","@@ -2601,7 +2602,7 @@ diff --git b/third_party/amd/backend/BUILD b/third_party/amd/backend/BUILD"," new file mode 100644"," --- /dev/null"," +++ b/third_party/amd/backend/BUILD","-@@ -0,0 +1,43 @@","+@@ -0,0 +1,46 @@"," +# load(\"@rules_cc//cc:cc_library.bzl\", \"cc_library\")"," +"," +package(","@@ -2639,7 +2640,10 @@ new file mode 100644"," +    includes = ["," +        \"include\","," +    ],","-+    textual_hdrs = glob([\"include/**/*.h\"]),","++    textual_hdrs = glob([","++        \"include/**/*.h\",","++        \"include/**/*.hpp\",","++    ]),"," +)"," +"," +exports_files(["],"additions":7,"deletions":3,"truncated":false},{"path":"third_party/xla/third_party/triton/workspace.bzl","lines":["@@ -7,8 +7,8 @@ load(\"//third_party/triton:oss_only/series.bzl\", \"oss_only_patch_list\")"," def repo():","     \"\"\"Imports Triton.\"\"\""," ","-    TRITON_COMMIT = \"feb6c04abe15e74faa23f0935ae74c0a38c5e37f\"","-    TRITON_SHA256 = \"faa578064028ac67e95eb94e20b5d1be666bae472ee4e2a5d5be8f8e51ef8818\"","+    TRITON_COMMIT = \"4768da5e8228dfbda8e0b7a61101f87d953341bd\"","+    TRITON_SHA256 = \"ba9a4a2643c16ae75da9a6eaa3658cb8d4284c7f590db1343aef28951c35c777\"","     tf_http_archive(","         name = \"triton\",","         sha256 = TRITON_SHA256,"],"additions":2,"deletions":2,"truncated":false},{"path":"third_party/xla/xla/service/gpu/autotuning/autotune_cache_key.h","lines":["@@ -34,7 +34,7 @@ class AutotuneCacheKey {","   // changes that may affect the autotuning results.","   // To prevent accidental merges of concurrent increments, update the comment","   // to explain why the version is bumped.","-  static constexpr int kCurrentVersion = 41;  // Triton integration 1.29.","+  static constexpr int kCurrentVersion = 42;  // Triton integration 1.30."," ","   AutotuneCacheKey(const se::DeviceDescription& device_description,","                    const HloInstruction& instruction,",""],"additions":1,"deletions":1,"truncated":false}],"additions":180,"deletions":73,"truncated":false,"file_count":8},"error":null,"fetched_at":"2026-05-23T09:23:39.233862+00:00"}