{"id":"e31320d22cd49755a673437f207f37b44f6e692e","axis":"silent","repo":"tensorflow/tensorflow","sha":"e31320d22cd49755a673437f207f37b44f6e692e","parsed":{"files":[{"path":"third_party/xla/third_party/triton/common/disable_amd_test.patch","lines":["@@ -4,7 +4,7 @@ would not be able to get run on presubmit anyway."," "," --- a/python/test/unit/language/test_compile_only.py"," +++ b/python/test/unit/language/test_compile_only.py","-@@ -213,6 +213,8 @@ def test_signature_ordering():","+@@ -242,6 +242,8 @@ def test_signature_ordering():","      triton.compile(src=src, target=target)","  ","  "],"additions":1,"deletions":1,"truncated":false},{"path":"third_party/xla/third_party/triton/common/discover_backends.patch","lines":["@@ -1,4 +1,4 @@","-Bug tracking the issue: http://b/322980485","+Bug tracking the issue: http://b/322980485 "," "," --- a/python/triton/backends/__init__.py"," +++ b/python/triton/backends/__init__.py"],"additions":1,"deletions":1,"truncated":false},{"path":"third_party/xla/third_party/triton/common/f8e5m2_conversion.patch","lines":["@@ -1,6 +1,6 @@"," --- a/python/test/unit/language/test_conversions.py"," +++ b/python/test/unit/language/test_conversions.py","-@@ -337,14 +337,18 @@ def test_typeconvert_upcast(src_dtype, dst_dtype, device):","+@@ -338,14 +338,18 @@ def test_typeconvert_upcast(src_dtype, dst_dtype, device):","  def test_typeconvert_downcast(src_dtype, dst_dtype, rounding, max_repr, device):","  ","      if is_cuda():"],"additions":1,"deletions":1,"truncated":false},{"path":"third_party/xla/third_party/triton/common/llvm_cl900404532.patch","lines":["@@ -1,77 +0,0 @@","-+++ b/test/Conversion/tritongpu_to_llvm.mlir","-@@ -87,9 +87,9 @@ module attributes {\"ttg.num-ctas\" = 1 : i32, \"ttg.num-warps\" = 8 : i32} {","- module attributes {\"ttg.num-ctas\" = 1 : i32, \"ttg.num-warps\" = 4 : i32} {","-   // CHECK-LABEL: store_with_cache_attr","-   tt.func @store_with_cache_attr(%a_ptr_init : tensor<256x!tt.ptr<f32>, #blocked0>, %cst : tensor<256xi1, #blocked0>, %cst_0 : tensor<256xf32, #blocked0>) {","--    // CHECK: llvm.inline_asm has_side_effects asm_dialect = att {{.*}} \"mov.u64 $0, 0x0;\\0A\\09createpolicy.fractional.L2::evict_last.b64 $0, 1.0;\"","-+    // CHECK: llvm.inline_asm has_side_effects asm_dialect = att {{.*}} \"mov.u64 $0, 0x0; createpolicy.fractional.L2::evict_last.b64 $0, 1.0;\"","-     // CHECK: llvm.inline_asm has_side_effects asm_dialect = att {{.*}} \"@$3 st.global.L1::evict_last.L2::cache_hint.b32 [ $1 + 0 ], { $0 }, $2;\"","--    // CHECK: llvm.inline_asm has_side_effects asm_dialect = att {{.*}} \"mov.u64 $0, 0x0;\\0A\\09createpolicy.fractional.L2::evict_last.b64 $0, 1.0;\"","-+    // CHECK: llvm.inline_asm has_side_effects asm_dialect = att {{.*}} \"mov.u64 $0, 0x0; createpolicy.fractional.L2::evict_last.b64 $0, 1.0;\"","-     // CHECK: llvm.inline_asm has_side_effects asm_dialect = att {{.*}} \"@$3 st.global.L1::evict_last.L2::cache_hint.b32 [ $1 + 0 ], { $0 }, $2;\"","-     tt.store %a_ptr_init, %cst_0, %cst evictionPolicy = evict_last cacheModifier = ca : tensor<256x!tt.ptr<f32>, #blocked0>","-     tt.return","-@@ -102,10 +102,10 @@ module attributes {\"ttg.num-ctas\" = 1 : i32, \"ttg.num-warps\" = 4 : i32} {","- module attributes {\"ttg.num-ctas\" = 1 : i32, \"ttg.num-warps\" = 4 : i32} {","-   // CHECK-LABEL: load_with_l2_cache_hint","-   tt.func @load_with_l2_cache_hint(%a_ptr_init : tensor<256x!tt.ptr<f32>, #blocked0>, %cst : tensor<256xi1, #blocked0>, %cst_0 : tensor<256xf32, #blocked0>) {","--    // CHECK: llvm.inline_asm has_side_effects asm_dialect = att {{.*}} \"mov.u64 $0, 0x0;\\0A\\09createpolicy.fractional.L2::evict_first.b64 $0, 1.0;\"","--    // CHECK: llvm.inline_asm has_side_effects asm_dialect = att {{.*}} \"mov.u32 $0, $1;\\0A\\09@$4 ld.global.L1::evict_first.L2::cache_hint.b32 { $0 }, [ $2 + 0 ], $3;\"","--    // CHECK: llvm.inline_asm has_side_effects asm_dialect = att {{.*}} \"mov.u64 $0, 0x0;\\0A\\09createpolicy.fractional.L2::evict_first.b64 $0, 1.0;\"","--    // CHECK: llvm.inline_asm has_side_effects asm_dialect = att {{.*}} \"mov.u32 $0, $1;\\0A\\09@$4 ld.global.L1::evict_first.L2::cache_hint.b32 { $0 }, [ $2 + 0 ], $3;\"","-+    // CHECK: llvm.inline_asm has_side_effects asm_dialect = att {{.*}} \"mov.u64 $0, 0x0; createpolicy.fractional.L2::evict_first.b64 $0, 1.0;\"","-+    // CHECK: llvm.inline_asm has_side_effects asm_dialect = att {{.*}} \"mov.u32 $0, $1; @$4 ld.global.L1::evict_first.L2::cache_hint.b32 { $0 }, [ $2 + 0 ], $3;\"","-+    // CHECK: llvm.inline_asm has_side_effects asm_dialect = att {{.*}} \"mov.u64 $0, 0x0; createpolicy.fractional.L2::evict_first.b64 $0, 1.0;\"","-+    // CHECK: llvm.inline_asm has_side_effects asm_dialect = att {{.*}} \"mov.u32 $0, $1; @$4 ld.global.L1::evict_first.L2::cache_hint.b32 { $0 }, [ $2 + 0 ], $3;\"","-       %1 = tt.load %a_ptr_init, %cst, %cst_0 evictionPolicy = evict_first : tensor<256x!tt.ptr<f32>, #blocked0>","-       tt.return","-   }","-@@ -116,9 +116,9 @@ module attributes {\"ttg.num-ctas\" = 1 : i32, \"ttg.num-warps\" = 4 : i32} {","- module attributes {\"ttg.num-ctas\" = 1 : i32, \"ttg.num-warps\" = 4 : i32} {","-   // CHECK-LABEL: store_with_l2_cache_hint","-   tt.func @store_with_l2_cache_hint(%a_ptr_init : tensor<256x!tt.ptr<f32>, #blocked0>, %cst : tensor<256xi1, #blocked0>, %cst_0 : tensor<256xf32, #blocked0>) {","--    // CHECK: llvm.inline_asm has_side_effects asm_dialect = att {{.*}} \"mov.u64 $0, 0x0;\\0A\\09createpolicy.fractional.L2::evict_last.b64 $0, 1.0;\"","-+    // CHECK: llvm.inline_asm has_side_effects asm_dialect = att {{.*}} \"mov.u64 $0, 0x0; createpolicy.fractional.L2::evict_last.b64 $0, 1.0;\"","-     // CHECK: llvm.inline_asm has_side_effects asm_dialect = att {{.*}} \"@$3 st.global.L1::evict_last.L2::cache_hint.b32 [ $1 + 0 ], { $0 }, $2;\"","--    // CHECK: llvm.inline_asm has_side_effects asm_dialect = att {{.*}} \"mov.u64 $0, 0x0;\\0A\\09createpolicy.fractional.L2::evict_last.b64 $0, 1.0;\"","-+    // CHECK: llvm.inline_asm has_side_effects asm_dialect = att {{.*}} \"mov.u64 $0, 0x0; createpolicy.fractional.L2::evict_last.b64 $0, 1.0;\"","-     // CHECK: llvm.inline_asm has_side_effects asm_dialect = att {{.*}} \"@$3 st.global.L1::evict_last.L2::cache_hint.b32 [ $1 + 0 ], { $0 }, $2;\"","-       tt.store %a_ptr_init, %cst_0, %cst evictionPolicy = evict_last : tensor<256x!tt.ptr<f32>, #blocked0>","-       tt.return","-","-+++ b/test/Conversion/tritoninstrument_to_llvm.mlir","-@@ -37,7 +37,7 @@ tt.func private @experimental_buffer_descriptors_shared() {","- #smem = #ttg.shared_memory","- module attributes {\"ttg.num-warps\" = 4 : i32, ttg.target = \"cuda:90\"} {","- // CHECK-LABEL: @experimental_lock_acquire","--// CHECK: 09atom.global.acquire.gpu.cas.b32","-+// CHECK: atom.global.acquire.gpu.cas.b32","- // CHECK: nvvm.barrier0","- tt.func private @experimental_lock_acquire(","-   %lock: !tt.ptr<i32>,","-","-+++ b/test/TritonGPU/atomic-cas.mlir","-@@ -1,6 +1,6 @@","- // RUN: triton-opt %s -convert-triton-gpu-to-llvm 2>&1 | FileCheck %s","- ","--// CHECK: llvm.inline_asm {{.*}} \"mov.u64 $0, 0x0;\\0A\\09@$4 atom.global.acq_rel.cta.cas.b64 $0, [ $1 + 0 ], $2, $3;\", \"=l,l,l,l,b\"","-+// CHECK: llvm.inline_asm {{.*}} \"mov.u64 $0, 0x0; @$4 atom.global.acq_rel.cta.cas.b64 $0, [ $1 + 0 ], $2, $3;\", \"=l,l,l,l,b\"","- // CHECK: st.shared","- // CHECK: nvvm.barrier0","- // CHECK: llvm.load","-","-+++ b/third_party/nvidia/lib/TritonNVIDIAGPUToLLVM/PTXAsmFormat.cpp","-@@ -144,7 +144,7 @@ std::string PTXBuilder::dump() const {","-     lines.push_back(exec->dump());","-   }","- ","--  return strJoin(lines, \"\\n\\t\");","-+  return strJoin(lines, \" \");","- }","- ","- PTXInstrExecution &PTXInstrCommon::call(ArrayRef<Operand *> oprs,","-"],"additions":0,"deletions":73,"truncated":false},{"path":"third_party/xla/third_party/triton/common/llvm_cl902211192.patch","lines":["@@ -1,36 +0,0 @@","-+++ b/test/Conversion/tritongpu_to_ptx.mlir","-@@ -11,8 +11,8 @@","- module attributes {\"ttg.num-ctas\" = 1 : i32, \"ttg.num-warps\" = 2 : i32, \"ttg.threads-per-warp\" = 32 : i32} {","-   tt.func public @add_bf16(%ptr: !tt.ptr<bf16> {tt.divisibility = 16 : i32}, %arg0: tensor<256xbf16, #blocked>, %arg1: tensor<256xbf16, #blocked>) {","-     // CHECK-LABEL: add_bf16","--    // SM80-COUNT-4: fma.rn.bf16x2","--    // SM90-COUNT-4: add.rn.bf16x2","-+    // SM80-COUNT-4: fma.rn.bf16","-+    // SM90-COUNT-4: add.rn.bf16","-     %0 = arith.addf %arg0, %arg1 : tensor<256xbf16, #blocked>","-     %1 = tt.make_range {end = 256 : i32, start = 0 : i32} : tensor<256xi32, #blocked>","-     %2 = tt.splat %ptr : !tt.ptr<bf16> -> tensor<256x!tt.ptr<bf16>, #blocked>","-@@ -23,8 +23,8 @@ module attributes {\"ttg.num-ctas\" = 1 : i32, \"ttg.num-warps\" = 2 : i32, \"ttg.thr","- ","-   tt.func public @sub_bf16(%ptr: !tt.ptr<bf16> {tt.divisibility = 16 : i32}, %arg0: tensor<256xbf16, #blocked>, %arg1: tensor<256xbf16, #blocked>) {","-     // CHECK-LABEL: sub_bf16","--    // SM80-COUNT-4: fma.rn.bf16x2","--    // SM90-COUNT-4: sub.rn.bf16x2","-+    // SM80-COUNT-4: fma.rn.bf16","-+    // SM90-COUNT-4: sub.rn.bf16","-     %0 = arith.subf %arg0, %arg1 : tensor<256xbf16, #blocked>","-     %1 = tt.make_range {end = 256 : i32, start = 0 : i32} : tensor<256xi32, #blocked>","-     %2 = tt.splat %ptr : !tt.ptr<bf16> -> tensor<256x!tt.ptr<bf16>, #blocked>","-@@ -35,8 +35,8 @@ module attributes {\"ttg.num-ctas\" = 1 : i32, \"ttg.num-warps\" = 2 : i32, \"ttg.thr","- ","-   tt.func public @mul_bf16(%ptr: !tt.ptr<bf16> {tt.divisibility = 16 : i32}, %arg0: tensor<256xbf16, #blocked>, %arg1: tensor<256xbf16, #blocked>) {","-     // CHECK-LABEL: mul_bf16","--    // SM80-COUNT-4: fma.rn.bf16x2","--    // SM90-COUNT-4: mul.rn.bf16x2","-+    // SM80-COUNT-4: fma.rn.bf16","-+    // SM90-COUNT-4: mul.rn.bf16","-     %0 = arith.mulf %arg0, %arg1 : tensor<256xbf16, #blocked>","-     %1 = tt.make_range {end = 256 : i32, start = 0 : i32} : tensor<256xi32, #blocked>","-     %2 = tt.splat %ptr : !tt.ptr<bf16> -> tensor<256x!tt.ptr<bf16>, #blocked>","-"],"additions":0,"deletions":35,"truncated":false},{"path":"third_party/xla/third_party/triton/common/llvm_cl904544082.patch","lines":["@@ -1,12 +0,0 @@","-+++ b/python/src/llvm.cc","-@@ -610,8 +610,6 @@ void init_triton_llvm(py::module &&m) {","-   m.attr(\"OPTIMIZE_O1\") = llvm::OptimizationLevel::O1;","-   m.attr(\"OPTIMIZE_O2\") = llvm::OptimizationLevel::O2;","-   m.attr(\"OPTIMIZE_O3\") = llvm::OptimizationLevel::O3;","--  m.attr(\"OPTIMIZE_Os\") = llvm::OptimizationLevel::Os;","--  m.attr(\"OPTIMIZE_Oz\") = llvm::OptimizationLevel::Oz;","- ","-   m.def(","-       \"to_module\",","-"],"additions":0,"deletions":11,"truncated":false},{"path":"third_party/xla/third_party/triton/common/llvm_cl910324404.patch","lines":["@@ -1,461 +0,0 @@","-+++ b/lib/Target/LLVMIR/LLVMDIUtils.cpp","-@@ -96,7 +96,8 @@ LLVM::DITypeAttr LLVMDIUtils::convertStructType(MLIRContext *context,","-       mlir::StringAttr::get(context, \"struct\"), fileAttr, /*line=*/line,","-       /*scope=*/fileAttr, /*baseType=*/nullptr, mlir::LLVM::DIFlags::Zero,","-       sizeInBits, /*alignInBits=*/0, /*dataLocation=*/nullptr, /*rank=*/nullptr,","--      /*allocated=*/nullptr, /*associated=*/nullptr, elTypes);","-+      /*allocated=*/nullptr, /*associated=*/nullptr, /*identifier=*/nullptr,","-+      /*discriminator=*/nullptr, elTypes);","- }","- ","- LLVM::DITypeAttr LLVMDIUtils::convertArrayType(MLIRContext *context,","-@@ -116,7 +117,8 @@ LLVM::DITypeAttr LLVMDIUtils::convertArrayType(MLIRContext *context,","-       mlir::StringAttr::get(context, \"array\"), fileAttr, /*line=*/line,","-       /*scope=*/fileAttr, /*baseType=*/baseType, mlir::LLVM::DIFlags::Zero,","-       sizeInBits, /*alignInBits=*/0, /*dataLocation=*/nullptr, /*rank=*/nullptr,","--      /*allocated=*/nullptr, /*associated=*/nullptr, elTypes);","-+      /*allocated=*/nullptr, /*associated=*/nullptr, /*identifier=*/nullptr,","-+      /*discriminator=*/nullptr, elTypes);","- }","- ","- std::optional<unsigned> LLVMDIUtils::calcBitWidth(mlir::Type type) {","-","-+++ b/test/Conversion/nvgpu_to_llvm.mlir","-@@ -81,9 +81,9 @@ module attributes {\"ttg.num-ctas\" = 1 : i32, \"ttg.num-warps\" = 4 : i32, ttg.shar","-   //      CHECK:    %[[A:.+]] = llvm.inline_asm has_side_effects","-   // CHECK-SAME:    \"@$0 tcgen05.alloc.cta_group::1.sync.aligned.shared::cta.b32 [$1], 128;\", \"b,r\" %[[PRED]], %[[SHMEM]] : (i1, !llvm.ptr<3>) -> !llvm.void","-   //      CHECK:    %[[AR:.+]] = llvm.load %[[SHMEM]] : !llvm.ptr<3> -> i32","--  //      CHECK:    nvvm.barrier0","-+  //      CHECK:    nvvm.barrier","-   //      CHECK:    \"@$0 tcgen05.relinquish_alloc_permit.cta_group::1.sync.aligned;\", \"b\" %[[PRED]]  : (i1) -> !llvm.void","--  //      CHECK:    nvvm.barrier0","-+  //      CHECK:    nvvm.barrier","-   //      CHECK:    llvm.inline_asm has_side_effects asm_dialect = att operand_attrs = [] \"@$0 tcgen05.dealloc.cta_group::1.sync.aligned.b32 $1, 128;\", \"b,r\" %[[PRED]], %{{.+}} : (i1, !llvm.ptr<6>) -> !llvm.void","-   llvm.mlir.global external @global_smem() {addr_space = 3 : i32, alignment = 16 : i64} : !llvm.array<0 x i8>","-   llvm.func @tensor_memory_base_lowering() -> i32 attributes {nvvm.kernel = 1 : ui1, nvvm.maxntid = array<i32: 128>} {","-","-+++ b/test/Conversion/tritongpu_to_llvm.mlir","-@@ -848,7 +848,7 @@ module attributes {\"ttg.num-ctas\" = 1 : i32, \"ttg.num-warps\" = 4 : i32} {","-   tt.func @convert_layout_blocked_blocked(%arg0: tensor<32x32xf32, #blocked0>) {","-     // CHECK: llvm.mlir.addressof @global_smem","-     // CHECK-COUNT-8: llvm.store","--    // CHECK-: nvvm.barrier0","-+    // CHECK-: nvvm.barrier","-     // CHECK-COUNT-8: llvm.load","-     %0 = ttg.convert_layout %arg0 : tensor<32x32xf32, #blocked0> -> tensor<32x32xf32, #blocked1>","-     tt.return","-@@ -866,7 +866,7 @@ module attributes {\"ttg.num-ctas\" = 1 : i32, \"ttg.num-warps\" = 4 : i32} {","-     // CHECK: llvm.mlir.addressof @global_smem","-     // CHECK: llvm.store","-     // CHECK: llvm.store","--    // CHECK: nvvm.barrier0","-+    // CHECK: nvvm.barrier","-     // CHECK: llvm.load","-     // CHECK: llvm.load","-     %0 = ttg.convert_layout %arg0 : tensor<32x32xf32, #blocked0> -> tensor<32x32xf32, #blocked1>","-@@ -1062,7 +1062,7 @@ module attributes {\"ttg.num-ctas\" = 1 : i32, \"ttg.num-warps\" = 4 : i32} {","-   // CHECK-LABEL: convert_layout_transpose","-   tt.func @convert_layout_transpose(%arg0: tensor<128x128xf8E5M2, #blocked>) {","-     // CHECK-COUNT-128: llvm.store {{.*}} vector<1xi8>","--    // CHECK: nvvm.barrier0","-+    // CHECK: nvvm.barrier","-     // CHECK-COUNT-32: llvm.load {{.*}} vector<4xi8>","-     %0 = ttg.convert_layout %arg0 : tensor<128x128xf8E5M2, #blocked> -> tensor<128x128xf8E5M2, #blocked1>","-     tt.return","-@@ -1079,7 +1079,7 @@ module attributes {\"ttg.num-ctas\" = 1 : i32, \"ttg.num-warps\" = 4 : i32} {","-   tt.func @convert_layout_mmav2_blocked(%arg0: tensor<32x16xf32, #mma>) {","-     // CHECK: llvm.store","-     // CHECK: llvm.store","--    // CHECK: nvvm.barrier0","-+    // CHECK: nvvm.barrier","-     // CHECK: llvm.load","-     %0 = ttg.convert_layout %arg0 : tensor<32x16xf32, #mma> -> tensor<32x16xf32, #blocked0>","-     tt.return","-@@ -1273,7 +1273,7 @@ module attributes {\"ttg.num-ctas\" = 1 : i32, \"ttg.num-warps\" = 8 : i32} {","-   // CHECK-LABEL: convert_layout_mmav3_transpose","-   tt.func @convert_layout_mmav3_transpose(%arg0: tensor<128x256xf8E5M2, #mma>) {","-     // CHECK-COUNT-8: llvm.store {{.*}} : vector<4xi32>","--    // CHECK: nvvm.barrier0","-+    // CHECK: nvvm.barrier","-     %0 = ttg.convert_layout %arg0 : tensor<128x256xf8E5M2, #mma> -> tensor<128x256xf8E5M2, #blocked>","-     tt.return","-   }","-@@ -1370,7 +1370,7 @@ module attributes {\"ttg.num-ctas\" = 1 : i32, \"ttg.num-warps\" = 8 : i32} {","-   tt.func @linear_layout_with_multiple_iterations(%src: tensor<8x4xbf16, #linear>) {","-     %cvt = ttg.convert_layout %src : tensor<8x4xbf16, #linear> -> tensor<8x4xbf16, #linear1>","-     // CHECK-COUNT-1: llvm.store {{.*}} : vector<4xi16>","--    // CHECK: nvvm.barrier0","-+    // CHECK: nvvm.barrier","-     // CHECK-COUNT: llvm.load{{.*}}->vector<2xi16>","-     tt.return","-   }","-@@ -1540,7 +1540,7 @@ module attributes {\"ttg.num-ctas\" = 1 : i32, \"ttg.num-warps\" = 4 : i32, \"ttg.tar","-   tt.func @atomic_add_use_result_broadcasting(%arg0 : tensor<16x!tt.ptr<f32>, #blocked0>, %arg1 : tensor<16xi1, #blocked0>, %arg2 : tensor<16xf32, #blocked0>) {","-     %0 = tt.atomic_rmw fadd, relaxed, sys, %arg0, %arg2, %arg1 : (tensor<16x!tt.ptr<f32>, #blocked0>, tensor<16xf32, #blocked0>, tensor<16xi1, #blocked0>) -> tensor<16xf32, #blocked0>","-     // CHECK: st.shared","--    // CHECK: nvvm.barrier0","-+    // CHECK: nvvm.barrier","-     // CHECK: llvm.load","-     tt.store %arg0, %0 : tensor<16x!tt.ptr<f32>, #blocked0>","-     tt.return","-@@ -1555,7 +1555,7 @@ module attributes {\"ttg.num-ctas\" = 1 : i32, \"ttg.num-warps\" = 4 : i32, \"ttg.tar","-   tt.func @atomic_add_use_result_no_broadcasting(%arg0 : tensor<128x!tt.ptr<f32>, #blocked0>, %arg1 : tensor<128xi1, #blocked0>, %arg2 : tensor<128xf32, #blocked0>) {","-     %0 = tt.atomic_rmw fadd, relaxed, sys, %arg0, %arg2, %arg1 : (tensor<128x!tt.ptr<f32>, #blocked0>, tensor<128xf32, #blocked0>, tensor<128xi1, #blocked0>) -> tensor<128xf32, #blocked0>","-     // CHECK-NOT: st.shared","--    // CHECK-NOT: nvvm.barrier0","-+    // CHECK-NOT: nvvm.barrier","-     // CHECK-NOT: llvm.load","-     tt.store %arg0, %0 : tensor<128x!tt.ptr<f32>, #blocked0>","-     tt.return","-@@ -1842,7 +1842,7 @@ module attributes {\"ttg.num-ctas\" = 1 : i32, \"ttg.num-warps\" = 1 : i32} {","- // CHECK-LABEL: sum_reduction","- //       CHECK:  %[[M:.+]] = llvm.mlir.constant(-1 : i32) : i32","- //       CHECK:   nvvm.redux.sync  add %{{.*}}, %[[M]]","--//       CHECK:   nvvm.barrier0","-+//       CHECK:   nvvm.barrier","- //       CHECK:   nvvm.shfl.sync bfly","- //       CHECK:   nvvm.shfl.sync bfly","- #blocked = #ttg.blocked<{sizePerThread = [1, 4], threadsPerWarp = [1, 32], warpsPerCTA = [1, 4], order = [1, 0]}>","-@@ -2369,7 +2369,7 @@ module attributes {\"ttg.num-ctas\" = 1 : i32, \"ttg.num-warps\" = 4 : i32} {","- // CHECK-DAG: llvm.mlir.global internal constant @assertFile_0(\"inner_call\\00\") {addr_space = 0 : i32}","- // CHECK-DAG: llvm.mlir.global internal constant @assertMessage_0(\"assert text\\00\") {addr_space = 0 : i32}","- // CHECK: llvm.call @__assertfail","--// CHECK: nvvm.barrier0","-+// CHECK: nvvm.barrier","- module attributes {\"ttg.num-ctas\" = 1 : i32, \"ttg.num-warps\" = 4 : i32, ttg.target = \"cuda:90\", \"ttg.threads-per-warp\" = 32 : i32} {","-   tt.func public @add_kernel(%arg0: tensor<1xi1, #blocked>) {","-     tt.assert %arg0, \"assert text\" : tensor<1xi1, #blocked> loc(#loc5)","-@@ -2425,7 +2425,7 @@ tt.func @gather_in_shared(%arg0: tensor<16x4xi32, #blocked1>, %arg1: tensor<8x4x","-   // CHECK: [[SMEM_BASE:%.*]] = llvm.mlir.addressof @global_smem","-   // CHECK-NEXT: [[SMEM:%.*]] = llvm.getelementptr [[SMEM_BASE]]","-   // CHECK: store","--  // CHECK-NEXT: nvvm.barrier0","-+  // CHECK-NEXT: nvvm.barrier","- ","-   // CHECK: [[I0:%.*]] = llvm.extractvalue %arg0[0]","- ","-@@ -2458,7 +2458,7 @@ tt.func @gather_in_shared_dot_input(%arg0: tensor<16x4xi32, #blocked>, %arg1: te","-   // CHECK: [[SMEM_BASE:%.*]] = llvm.mlir.addressof @global_smem","-   // CHECK-NEXT: [[SMEM:%.*]] = llvm.getelementptr [[SMEM_BASE]]","-   // CHECK: insertelement [[S0]]","--  // CHECK: nvvm.barrier0","-+  // CHECK: nvvm.barrier","- ","-   // CHECK: [[I0:%.*]] = llvm.extractvalue %arg0[0]","- ","-","-+++ b/test/Conversion/tritongpu_to_llvm_blackwell.mlir","-@@ -11,7 +11,7 @@ module attributes {\"ttg.num-ctas\" = 1 : i32, \"ttg.num-warps\" = 8 : i32} {","-   // CHECK: %[[C0:.+]] = llvm.mlir.constant(0 : i32) : i32","-   // CHECK: %[[P0:.+]] = llvm.icmp \"eq\" %[[WID]], %[[C0]] : i32","-   // CHECK: %[[P1:.+]] = llvm.and %{{.*}}, %[[P0]]  : i1","--  // CHECK: nvvm.barrier0","-+  // CHECK: nvvm.barrier","-   // CHECK-NEXT: llvm.cond_br %[[P1]]","-   // CHECK: %[[E:.+]] = nvvm.elect.sync -> i1","-   // CHECK-COUNT-8: @$5 tcgen05.mma.cta_group::1.kind::f16 [ $0 + 0 ], $1, $2, $3, $4;\", \"r,l,l,r,b,b\" %{{.+}}, %{{.+}}, %{{.+}}, %{{.+}}, %{{.+}}, %[[E]]","-@@ -189,7 +189,7 @@ module attributes {\"ttg.num-ctas\" = 1 : i32, \"ttg.num-warps\" = 4 : i32} {","-   // CHECK: %[[TMEM_SUBSLICE_BASE:.+]] = llvm.ptrtoint %[[TMEM_SUBSLICE_PTR]] : !llvm.ptr<3> to i32","-   // CHECK-COUNT-4: @$5 tcgen05.mma.cta_group::1.kind::f16 [ $0 + 0 ], $1, $2, $3, $4;\", \"r,l,l,r,b,b\" %[[TMEM_SUBSLICE_BASE]]","-   // CHECK-COUNT-4: @$5 tcgen05.mma.cta_group::1.kind::f16 [ $0 + 128 ], $1, $2, $3, $4;\", \"r,l,l,r,b,b\" %[[TMEM_SUBSLICE_BASE]]","--  // CHECK-NOT: nvvm.barrier0","-+  // CHECK-NOT: nvvm.barrier","-   tt.func @tc_gen5_mma_subslice_acc(%a: !ttg.memdesc<256x64xf16, #shared, #ttg.shared_memory>,","-                                     %b: !ttg.memdesc<64x64xf16, #shared1, #ttg.shared_memory>,","-                                     %c: !ttg.memdesc<256x128xf32, #tmem, #ttng.tensor_memory, mutable>) {","-@@ -790,7 +790,7 @@ module attributes {\"ttg.num-ctas\" = 1 : i32, \"ttg.num-warps\" = 8 : i32} {","- module attributes {\"ttg.num-warps\" = 1 : i32} {","- // CHECK-LABEL: @tc_gen5_commit","- tt.func @tc_gen5_commit(%arg0: !ttg.memdesc<1xi64, #shared, #smem, mutable>, %pred: i1) {","--  // CHECK-NEXT: nvvm.barrier0","-+  // CHECK-NEXT: nvvm.barrier","-   // CHECK: [[ZERO:%.*]] = llvm.mlir.constant(0 : i32)","-   // CHECK: [[IS_WARP_0:%.*]] = llvm.icmp \"eq\" [[ZERO]], [[ZERO]]","-   // CHECK: [[ELECT:%.*]] = nvvm.elect.sync","-@@ -886,7 +886,7 @@ tt.func @load_store_x1_unpacked(%arg0: !ttg.memdesc<128x2xf16, #tmem_x1_unpacked","- // CHECK-LABEL: max_reduction","- //       CHECK:  %[[M:.+]] = llvm.mlir.constant(-1 : i32) : i32","- //       CHECK:   nvvm.redux.sync  fmax %{{.*}}, %[[M]] {nan = true} : f32 -> f32","--//       CHECK:   nvvm.barrier0","-+//       CHECK:   nvvm.barrier","- //       CHECK:   nvvm.shfl.sync bfly","- //       CHECK:   nvvm.shfl.sync bfly","- #blocked = #ttg.blocked<{sizePerThread = [1, 4], threadsPerWarp = [1, 32], warpsPerCTA = [1, 4], order = [1, 0]}>","-@@ -906,7 +906,7 @@ module attributes {\"ttg.target\" = \"cuda:100\", \"ttg.num-ctas\" = 1 : i32, \"ttg.num","- // CHECK-LABEL: maxnum_reduction","- //       CHECK:  %[[M:.+]] = llvm.mlir.constant(-1 : i32) : i32","- //       CHECK:   nvvm.redux.sync  fmax %{{.*}}, %[[M]] : f32 -> f32","--//       CHECK:   nvvm.barrier0","-+//       CHECK:   nvvm.barrier","- //       CHECK:   nvvm.shfl.sync bfly","- //       CHECK:   nvvm.shfl.sync bfly","- #blocked = #ttg.blocked<{sizePerThread = [1, 4], threadsPerWarp = [1, 32], warpsPerCTA = [1, 4], order = [1, 0]}>","-","-+++ b/test/Conversion/tritongpu_to_llvm_gsan.mlir","-@@ -4,7 +4,7 @@","- module attributes {\"ttg.instrumentation_mode\" = \"gsan\", \"ttg.num-ctas\" = 1 : i32, \"ttg.num-warps\" = 4 : i32} {","-   // CHECK-LABEL: llvm.func @load_store","-   // CHECK: llvm.call @__triton_gsan_init(%{{.*}}, %{{.*}}, %{{.*}}) : (!llvm.ptr, !llvm.ptr, i32) -> ()","--  // CHECK: nvvm.barrier0","-+  // CHECK: nvvm.barrier","-   // CHECK: llvm.store %{{.*}} : i64, !llvm.ptr","-   // CHECK: llvm.store %{{.*}} : i8, !llvm.ptr","-   // CHECK: llvm.call @__triton_gsan_load_tensor(%{{.*}}, %{{.*}}, %{{.*}}, %{{.*}}, %{{.*}}, %{{.*}}) : (!llvm.ptr, !llvm.ptr, i32, i32, !llvm.ptr, i32) -> ()","-","-+++ b/test/Conversion/tritongpu_to_llvm_hopper.mlir","-@@ -302,11 +302,11 @@ module attributes {\"ttg.target\" = \"cuda:90\", \"ttg.num-ctas\" = 1 : i32, \"ttg.num-","- module attributes {\"ttg.target\" = \"cuda:90\", \"ttg.num-ctas\" = 1 : i32, \"ttg.num-warps\" = 8 : i32, \"ttg.threads-per-warp\" = 32 : i32} {","-   tt.func @convert_mma_to_blocked(%a: tensor<128x256xf16, #mma>) {","-     // CHECK-COUNT-8: llvm.store","--    //          CHECK: nvvm.barrier0","-+    //          CHECK: nvvm.barrier","-     // CHECK-COUNT-8: nvvm.ldmatrix","--    //          CHECK: nvvm.barrier0","-+    //          CHECK: nvvm.barrier","-     // CHECK-COUNT-8: llvm.store","--    //          CHECK: nvvm.barrier0","-+    //          CHECK: nvvm.barrier","-     // CHECK-COUNT-8: nvvm.ldmatrix","-     %c = ttg.convert_layout %a : tensor<128x256xf16, #mma> -> tensor<128x256xf16, #blocked>","-     tt.return","-@@ -320,19 +320,19 @@ module attributes {\"ttg.target\" = \"cuda:90\", \"ttg.num-ctas\" = 1 : i32, \"ttg.num-","- module attributes {\"ttg.target\" = \"cuda:90\", \"ttg.num-ctas\" = 1 : i32, \"ttg.num-warps\" = 8 : i32, \"ttg.threads-per-warp\" = 32 : i32} {","-   tt.func @convert_mma_to_blocked(%a: tensor<128x64xbf16, #linear>) {","-     // CHECK: llvm.store {{.*}} : vector<4xi32>","--    // CHECK: nvvm.barrier0","-+    // CHECK: nvvm.barrier","-     // CHECK: llvm.load {{.*}} -> vector<4xi32>","--    // CHECK: nvvm.barrier0","-+    // CHECK: nvvm.barrier","-     // CHECK: llvm.store {{.*}} : vector<4xi32>","--    // CHECK: nvvm.barrier0","-+    // CHECK: nvvm.barrier","-     // CHECK: llvm.load {{.*}} -> vector<4xi32>","--    // CHECK: nvvm.barrier0","-+    // CHECK: nvvm.barrier","-     // CHECK: llvm.store {{.*}} : vector<4xi32>","--    // CHECK: nvvm.barrier0","-+    // CHECK: nvvm.barrier","-     // CHECK: llvm.load {{.*}} -> vector<4xi32>","--    // CHECK: nvvm.barrier0","-+    // CHECK: nvvm.barrier","-     // CHECK: llvm.store {{.*}} : vector<4xi32>","--    // CHECK: nvvm.barrier0","-+    // CHECK: nvvm.barrier","-     // CHECK: llvm.load {{.*}} -> vector<4xi32>","-     // CHECK-NOT: llvm.store","-     // CHECK-NOT: llvm.load","-@@ -350,19 +350,19 @@ module attributes {\"ttg.num-ctas\" = 1 : i32, \"ttg.num-warps\" = 4 : i32} {","-   // CHECK-LABEL: convert_blocked_to_dot_rhs","-   tt.func @convert_blocked_to_dot_rhs(%a: tensor<64x64xf16, #blocked>) {","-     // CHECK-COUNT-1: llvm.store","--    //          CHECK: nvvm.barrier0","-+    //          CHECK: nvvm.barrier","-     // CHECK-COUNT-4: nvvm.ldmatrix","--    //          CHECK: nvvm.barrier0","-+    //          CHECK: nvvm.barrier","-     // CHECK-COUNT-1: llvm.store","--    //          CHECK: nvvm.barrier0","-+    //          CHECK: nvvm.barrier","-     // CHECK-COUNT-4: nvvm.ldmatrix","--    //          CHECK: nvvm.barrier0","-+    //          CHECK: nvvm.barrier","-     // CHECK-COUNT-1: llvm.store","--    //          CHECK: nvvm.barrier0","-+    //          CHECK: nvvm.barrier","-     // CHECK-COUNT-4: nvvm.ldmatrix","--    //          CHECK: nvvm.barrier0","-+    //          CHECK: nvvm.barrier","-     // CHECK-COUNT-1: llvm.store","--    //          CHECK: nvvm.barrier0","-+    //          CHECK: nvvm.barrier","-     // CHECK-COUNT-4: nvvm.ldmatrix","-     %b = ttg.convert_layout %a  : tensor<64x64xf16, #blocked> -> tensor<64x64xf16, #ttg.dot_op<{opIdx = 1, parent = #mma, kWidth = 2}>>","-     tt.return","-","-+++ b/test/Conversion/tritoninstrument_to_llvm.mlir","-@@ -38,7 +38,7 @@ tt.func private @experimental_buffer_descriptors_shared() {","- module attributes {\"ttg.num-warps\" = 4 : i32, ttg.target = \"cuda:90\"} {","- // CHECK-LABEL: @experimental_lock_acquire","- // CHECK: atom.global.acquire.gpu.cas.b32","--// CHECK: nvvm.barrier0","-+// CHECK: nvvm.barrier","- tt.func private @experimental_lock_acquire(","-   %lock: !tt.ptr<i32>,","-   %pred: i1","-@@ -55,7 +55,7 @@ tt.func private @experimental_lock_acquire(","- #smem = #ttg.shared_memory","- module attributes {\"ttg.num-warps\" = 4 : i32, ttg.target = \"cuda:90\"} {","- // CHECK-LABEL: @experimental_lock_release","--// CHECK: nvvm.barrier0","-+// CHECK: nvvm.barrier","- // CHECK: atom.global.release.gpu.exch.b32","- tt.func private @experimental_lock_release(","-   %lock: !tt.ptr<i32>,","-","-+++ b/test/Conversion/tritonnvidiagpu_to_llvm.mlir","-@@ -80,7 +80,7 @@ module attributes {\"ttg.num-ctas\" = 1 : i32, \"ttg.num-warps\" = 4 : i32} {","-   tt.func @arrive_barrier(%alloc: !ttg.memdesc<1xi64, #shared0, #smem>) {","-     // CHECK-NEXT: [[BASE:%.*]] = llvm.extractvalue %arg0[0] : !llvm.struct<(ptr<3>, i32)>","-     // CHECK-NEXT: llvm.extractvalue %arg0[1] : !llvm.struct<(ptr<3>, i32)>","--    // CHECK-NEXT: nvvm.barrier0","-+    // CHECK-NEXT: nvvm.barrier","-     // CHECK-NEXT: [[TID:%.*]] = nvvm.read.ptx.sreg.tid.x","-     // CHECK-NEXT: [[C127:%.*]] = llvm.mlir.constant(127 : i32)","-     // CHECK-NEXT: [[RTID:%.*]] = llvm.and [[TID]], [[C127]]","-@@ -95,7 +95,7 @@ module attributes {\"ttg.num-ctas\" = 1 : i32, \"ttg.num-warps\" = 4 : i32} {","-   tt.func @arrive_barrier_pred(%alloc: !ttg.memdesc<1xi64, #shared0, #smem>, %pred: i1) {","-     // CHECK-NEXT: [[BASE:%.*]] = llvm.extractvalue %arg0[0] : !llvm.struct<(ptr<3>, i32)>","-     // CHECK-NEXT: llvm.extractvalue %arg0[1] : !llvm.struct<(ptr<3>, i32)>","--    // CHECK-NEXT: nvvm.barrier0","-+    // CHECK-NEXT: nvvm.barrier","-     // CHECK-NEXT: [[TID:%.*]] = nvvm.read.ptx.sreg.tid.x","-     // CHECK-NEXT: [[C127:%.*]] = llvm.mlir.constant(127 : i32)","-     // CHECK-NEXT: [[RTID:%.*]] = llvm.and [[TID]], [[C127]]","-@@ -115,7 +115,7 @@ module attributes {\"ttg.num-ctas\" = 1 : i32, \"ttg.num-warps\" = 4 : i32} {","- module attributes {\"ttg.num-ctas\" = 2 : i32, \"ttg.num-warps\" = 4 : i32} {","-   // CHECK-LABEL: arrive_barrier_cluster_broadcast","-   tt.func @arrive_barrier_cluster_broadcast(%alloc: !ttg.memdesc<1xi64, #shared0, #smem>) {","--    // CHECK: nvvm.barrier0","-+    // CHECK: nvvm.barrier","-     // CHECK-NOT: nvg.cluster_id","-     // CHECK: llvm.ptrtoint","-     // CHECK: llvm.and","-@@ -371,7 +371,7 @@ module attributes {\"ttg.num-ctas\" = 1 : i32, \"ttg.num-warps\" = 4 : i32} {","- #smem = #ttg.shared_memory","- module attributes {\"ttg.num-ctas\" = 1 : i32, \"ttg.num-warps\" = 4 : i32} {","-   // CHECK-LABEL: expect_barrier","--  // CHECK: nvvm.barrier0","-+  // CHECK: nvvm.barrier","-   // CHECK: [[TID:%.*]] = nvvm.read.ptx.sreg.tid.x","-   // CHECK: [[C127:%.*]] = llvm.mlir.constant(127 : i32)","-   // CHECK: [[RTID:%.*]] = llvm.and [[TID]], [[C127]]","-@@ -391,7 +391,7 @@ module attributes {\"ttg.num-ctas\" = 1 : i32, \"ttg.num-warps\" = 4 : i32} {","- #smem = #ttg.shared_memory","- module attributes {\"ttg.num-ctas\" = 2 : i32, \"ttg.num-warps\" = 4 : i32} {","-   // CHECK-LABEL: expect_barrier_cluster_broadcast","--  // CHECK: nvvm.barrier0","-+  // CHECK: nvvm.barrier","-   // CHECK-NOT: nvg.cluster_id","-   // CHECK: llvm.ptrtoint","-   // CHECK: llvm.and","-","-+++ b/test/Conversion/warp_specialize_to_llvm.mlir","-@@ -20,27 +20,27 @@ llvm.func @rewrite_barriers() attributes {allocation.offset = 32 : i32} {","- ","-   // CHECK: bb{{[0-9]+}}:","-   // CHECK-NEXT: nvvm.barrier id = [[C0]] number_of_threads = [[C128]]","--  nvvm.barrier0","-+  nvvm.barrier","-   ttg.warp_specialize() attributes {allocation.offset = 0 : i32, warpGroupStartIds = array<i32: 4, 8, 10>}","-   default {","-     // CHECK: nvvm.barrier id = [[C0]] number_of_threads = [[C128]]","--    nvvm.barrier0","-+    nvvm.barrier","-     ttg.warp_yield","-   }","-   partition0() num_warps(4) {","--    nvvm.barrier0","-+    nvvm.barrier","-     ttg.warp_return","-   }","-   partition1() num_warps(2) {","--    nvvm.barrier0","-+    nvvm.barrier","-     ttg.warp_return","-   }","-   partition2() num_warps(1) {","--    nvvm.barrier0","-+    nvvm.barrier","-     ttg.warp_return","-   } : () -> ()","-   // CHECK: nvvm.barrier id = [[C0]] number_of_threads = [[C128]]"],"additions":0,"deletions":372,"truncated":false}],"additions":3,"deletions":494,"truncated":true,"file_count":7},"error":null,"fetched_at":"2026-06-17T12:14:18.745102+00:00"}