{"id":"9bf70fb189ca3bc2670510bd965a7e41b6e1e844","axis":"silent","repo":"tensorflow/tensorflow","sha":"9bf70fb189ca3bc2670510bd965a7e41b6e1e844","parsed":{"files":[{"path":"third_party/xla/xla/hlo/analysis/BUILD","lines":["@@ -207,6 +207,8 @@ cc_library(","         \":hlo_operand_index\",","         \"//xla:shape_util\",","         \"//xla/hlo/ir:hlo\",","+        \"//xla/hlo/ir:hlo_instruction_utils\",","+        \"@com_google_absl//absl/log\",","         \"@com_google_absl//absl/log:check\",","         \"@com_google_absl//absl/strings\",","     ],","@@ -266,6 +268,7 @@ xla_cc_test(","     srcs = [\"hlo_dataflow_analysis_test.cc\"],","     deps = [","         \":alias_info\",","+        \":hlo_alias_analysis\",","         \":hlo_dataflow_analysis\",","         \":hlo_operand_index\",","         \":hlo_ordering\",","@@ -277,9 +280,12 @@ xla_cc_test(","         \"//xla/hlo/testlib:test\",","         \"//xla/hlo/transforms/simplifiers:flatten_call_graph\",","         \"//xla/hlo/transforms/simplifiers:hlo_dce\",","+        \"//xla/service:hlo_buffer\",","         \"//xla/service:hlo_value\",","         \"//xla/tsl/lib/core:status_test_util\",","         \"//xla/tsl/platform:statusor\",","+        \"@com_google_absl//absl/algorithm:container\",","+        \"@com_google_absl//absl/log\",","         \"@com_google_absl//absl/log:check\",","         \"@com_google_absl//absl/status\",","         \"@com_google_absl//absl/strings\",","@@ -575,6 +581,7 @@ xla_cc_test(","         \"//xla/tsl/platform:logging\",","         \"@com_google_absl//absl/algorithm:container\",","         \"@com_google_absl//absl/log:check\",","+        \"@com_google_absl//absl/strings:string_view\",","         \"@com_google_absl//absl/types:span\",","         \"@com_google_googletest//:gtest_main\",","     ],","@@ -592,7 +599,6 @@ xla_cc_test(","         \"//xla/hlo/testlib:test\",","         \"//xla/service:logical_buffer\",","         \"//xla/tsl/platform:status_matchers\",","-        \"@com_google_absl//absl/status\",","         \"@com_google_absl//absl/strings:string_view\",","         \"@com_google_googletest//:gtest_main\",","     ],"],"additions":7,"deletions":1,"truncated":false},{"path":"third_party/xla/xla/hlo/analysis/alias_info.cc","lines":["@@ -22,10 +22,12 @@ limitations under the License."," #include <vector>"," "," #include \"absl/log/check.h\"","+#include \"absl/log/log.h\""," #include \"absl/strings/match.h\""," #include \"xla/hlo/analysis/hlo_operand_index.h\""," #include \"xla/hlo/ir/hlo_casting_utils.h\""," #include \"xla/hlo/ir/hlo_instruction.h\"","+#include \"xla/hlo/ir/hlo_instruction_utils.h\""," #include \"xla/hlo/ir/hlo_instructions.h\""," #include \"xla/hlo/ir/hlo_opcode.h\""," #include \"xla/shape.h\"","@@ -246,20 +248,183 @@ AliasInfo::GetInPlaceInputOutputPairs(const HloInstruction* user) const {","     return in_place_pairs;","   }","   if (user->opcode() == HloOpcode::kAsyncStart) {","-    // Custom Calls previously assumed that aliased operands were","-    // forwarded, but now supports modification semantics.","     const auto& aliasing_pairs =","         Cast<HloAsyncStartInstruction>(user)->output_to_operand_aliasing();","     std::vector<std::pair<HloOperandIndex, ShapeIndex>> in_place_pairs;","+","+    // No operands bound, exit early or no aliasing, exit early.","+    if (user->operands().empty() || aliasing_pairs.empty()) {","+      return in_place_pairs;","+    }","+","     in_place_pairs.reserve(aliasing_pairs.size());","+    const Shape& async_shape = user->shape();","+    CHECK(async_shape.IsTuple());","+    CHECK_GE(ShapeUtil::TupleElementCount(async_shape), 2);","+    const Shape& output_subshape = async_shape.tuple_shapes(1);","     for (const auto& pair : aliasing_pairs) {","       ShapeIndex output_shape_index = pair.first;","       int64_t operand_index = pair.second.first;","       ShapeIndex operand_shape_index = pair.second.second;","+","+      // TODO(phui): Move this to verifier.","+      CHECK(!output_shape_index.empty())","+          << \"output_shape_index should not be empty, it should not alias with \"","+             \"the whole output tuple!\";","+","+      // Aliasing is for output_subshape, but output_subshape is not bound yet.","+      if (output_shape_index[0] == 1 &&","+          (output_subshape.IsTuple() &&","+           output_subshape.tuple_shapes().empty())) {","+        VLOG(1) << \"aliasing config for output_subshape, but it is not bound \"","+                   \"yet\";","+        continue;","+      }","+","+      if (!ShapeUtil::IndexIsValid(async_shape, output_shape_index)) {","+        VLOG(1) << \"output_shape_index (`\" << output_shape_index.ToString()","+                << \"`) in aliasing config for async operations invalid \"","+                   \"and ignored, reason:\\n\"","+                << \"it may not be bound yet\";","+        continue;","+      }","+","+      // This operand is not bound yet.","+      if (operand_index >= user->operands().size()) {","+        continue;","+      }","+","+      // TODO(phui): Move this to verifier.","+      CHECK(ShapeUtil::IndexIsValid(user->operand(operand_index)->shape(),","+                                    operand_shape_index));","+","+      in_place_pairs.push_back(","+          {HloOperandIndex{operand_index, {operand_shape_index}},","+           output_shape_index});","+    }","+    return in_place_pairs;","+  }","+","+  if (user->opcode() == HloOpcode::kAsyncUpdate) {","+    std::vector<std::pair<HloOperandIndex, ShapeIndex>> in_place_pairs;","+    const Shape& async_shape = user->shape();","+    CHECK(async_shape.IsTuple());","+    CHECK_GE(ShapeUtil::TupleElementCount(async_shape), 2);","+    const Shape& input_subshape = async_shape.tuple_shapes(0);","+    CHECK(input_subshape.IsTuple());","+    const Shape& output_subshape = async_shape.tuple_shapes(1);","+","+    CHECK_GE(user->operand_count(), 1);","+","+    // Retrieve the aliasing pairs from the async-start.","+    const HloInstruction* start = user->async_chain_start();","+    CHECK_EQ(start->opcode(), HloOpcode::kAsyncStart);","+    const auto& aliasing_pairs =","+        Cast<HloAsyncStartInstruction>(start)->output_to_operand_aliasing();","+","+    if (user->operand_count() == 1 || aliasing_pairs.empty()) {","+      return in_place_pairs;","+    }","+","+    std::vector<const HloInstruction*> prev_bound_operands =","+        hlo_instruction_utils::async::GetAsyncBoundOperands(","+            Cast<HloAsyncInstruction>(user->operand(0)));","+","+    for (const auto& pair : aliasing_pairs) {","+      ShapeIndex output_shape_index = pair.first;","+      int64_t logical_operand_index = pair.second.first;","+      ShapeIndex operand_shape_index = pair.second.second;","+","+      // TODO(phui): Move this to verifier.","+      CHECK(!output_shape_index.empty())","+          << \"output_shape_index should not be empty, it should not alias with \"","+             \"the whole output tuple!\";","+","+      // Aliasing is for output_subshape, but output_subshape is not bound yet.","+      if (output_shape_index[0] == 1 &&","+          (output_subshape.IsTuple() &&","+           output_subshape.tuple_shapes().empty())) {","+        VLOG(1) << \"aliasing config for output_subshape, but it is not bound \"","+                   \"yet\";","+        continue;","+      }","+","+      if (!ShapeUtil::IndexIsValid(async_shape, output_shape_index)) {","+        VLOG(1) << \"output_shape_index (`\" << output_shape_index.ToString()","+                << \"`) in aliasing config for async operations invalid \"","+                   \"and ignored, reason:\\n\"","+                << \"it may not be bound yet\";","+        continue;","+      }","+","+      // The operand index for this async-update instruction.","+      int64_t operand_index =","+          logical_operand_index - prev_bound_operands.size() + 1;","+","+      if (operand_index <= 0 || operand_index >= user->operand_count()) {","+        // This operand is already bound or not bound yet, having been handled","+        // in the previous ones or to be handled in the next ones.","+        continue;","+      }","+","+      // TODO(phui): Move this to verifier.","+      CHECK(ShapeUtil::IndexIsValid(user->operand(operand_index)->shape(),","+                                    operand_shape_index));","+","       in_place_pairs.push_back(","           {HloOperandIndex{operand_index, {operand_shape_index}},","            output_shape_index});","     }","+","+    return in_place_pairs;","+  }","+","+  if (user->opcode() == HloOpcode::kAsyncDone) {","+    std::vector<std::pair<HloOperandIndex, ShapeIndex>> in_place_pairs;","+    const Shape& prev_shape = user->operand(0)->shape();","+    CHECK(prev_shape.IsTuple());","+    CHECK_GE(ShapeUtil::TupleElementCount(prev_shape), 2);","+    const Shape& prev_input_subshape = prev_shape.tuple_shapes(0);","+    CHECK(prev_input_subshape.IsTuple());","+","+    // Additional logic for late-bound result-to-parameter aliasing:","+    const HloInstruction* start = user->async_chain_start();","+    CHECK_EQ(start->opcode(), HloOpcode::kAsyncStart);","+    const auto& aliasing_pairs =","+        Cast<HloAsyncStartInstruction>(start)->output_to_operand_aliasing();","+","+    for (const auto& pair : aliasing_pairs) {","+      const ShapeIndex& start_output_index = pair.first;","+      int64_t logical_param_number = pair.second.first;","+      const ShapeIndex& param_subindex = pair.second.second;","+","+      // We only care about result-to-parameter aliasing.","+      if (!start_output_index.empty() && start_output_index[0] == 1) {","+        ShapeIndex result_subindex(start_output_index.begin() + 1,","+                                   start_output_index.end());","+        if (!ShapeUtil::IndexIsValid(user->shape(), result_subindex)) {","+          continue;","+        }","+","+        // Alias async-done output at {result_subindex}","+        // with async-done operand 0 (the chain) at","+        // {0, logical_param, param_subindex}.","+        ShapeIndex chain_index = {0, logical_param_number};","+        chain_index.insert(chain_index.end(), param_subindex.begin(),","+                           param_subindex.end());","+","+        in_place_pairs.push_back(","+            {HloOperandIndex{0, chain_index}, result_subindex});","+      } else {","+        // TODO(phui): move this to verifier.","+        LOG(INFO)","+            << \"output_index (`\" << start_output_index.ToString()","+            << \"`) in aliasing config for async operations invalid \"","+               \"and ignored, reason:\\n\"","+            << \"it should be an non-empty index pointing to output subshape \"","+               \"({1,...})\";","+      }","+    }","     return in_place_pairs;","   }","   if (user->opcode() == HloOpcode::kSetDimensionSize) {"],"additions":167,"deletions":2,"truncated":false},{"path":"third_party/xla/xla/hlo/analysis/alias_info_test.cc","lines":["@@ -84,15 +84,49 @@ ENTRY main {","   ROOT done = f32[2,3] call-done(start)"," }"," )\";","-  TF_ASSERT_OK_AND_ASSIGN(auto module, ParseAndReturnVerifiedModule(kHlo));","+  ASSERT_OK_AND_ASSIGN(auto module, ParseAndReturnVerifiedModule(kHlo));","   const HloInstruction* start = FindInstruction(module.get(), \"start\");","+  const HloInstruction* done = FindInstruction(module.get(), \"done\");","+  AliasInfo alias_info;","+  auto pairs_start = alias_info.GetInPlaceInputOutputPairs(start);","+  EXPECT_THAT(pairs_start, ElementsAre(std::pair<HloOperandIndex, ShapeIndex>{","+                               HloOperandIndex{0, {}}, {1}}));","+  auto pairs_done = alias_info.GetInPlaceInputOutputPairs(done);","+  EXPECT_THAT(pairs_done, ElementsAre(std::pair<HloOperandIndex, ShapeIndex>{","+                              HloOperandIndex{0, {0, 0}}, {}}));","+}"," ","-  auto pairs = alias_info_.GetInPlaceInputOutputPairs(start);","-","-  // By default for forwarded operands: operand 0 maps to output {0, 0} for the","-  // parameter subshape","-  EXPECT_THAT(pairs, ElementsAre(std::pair<HloOperandIndex, ShapeIndex>{","-                         HloOperandIndex{0, {}}, {1}}));","+// Tests that the alias info is computed correctly when the output-to-operand","+// aliasing is late-bound.","+TEST_F(GetInPlaceInputOutputPairsTest, AsyncStart_LateBinding) {","+  const char* const kHlo = R\"(","+HloModule test","+async_computation {","+  p0 = f32[2,3] parameter(0)","+  ROOT abs = f32[2,3] abs(p0)","+}","+ENTRY main {","+  p0 = f32[2,3] parameter(0)","+  start = ((), (), s32[]) call-start(),","+    to_apply=async_computation,","+    output_to_operand_aliasing={{1}: (0, {})}","+  update = ((f32[2,3]), f32[2,3]) async-update(start, p0)","+  ROOT done = f32[2,3] call-done(update)","+}","+)\";","+  ASSERT_OK_AND_ASSIGN(auto module, ParseAndReturnVerifiedModule(kHlo));","+  const HloInstruction* start = FindInstruction(module.get(), \"start\");","+  AliasInfo alias_info;","+  auto pairs_start = alias_info.GetInPlaceInputOutputPairs(start);","+  EXPECT_TRUE(pairs_start.empty());","+  const HloInstruction* update = FindInstruction(module.get(), \"update\");","+  auto pairs_update = alias_info.GetInPlaceInputOutputPairs(update);","+  EXPECT_THAT(pairs_update, ElementsAre(std::pair<HloOperandIndex, ShapeIndex>{","+                                HloOperandIndex{1, {}}, {1}}));","+  const HloInstruction* done = FindInstruction(module.get(), \"done\");","+  auto pairs_done = alias_info.GetInPlaceInputOutputPairs(done);","+  EXPECT_THAT(pairs_done, ElementsAre(std::pair<HloOperandIndex, ShapeIndex>{","+                              HloOperandIndex{0, {0, 0}}, {}}));"," }"," "," // Verifies that a dynamic-update-slice instruction can compute in-place","@@ -169,9 +203,21 @@ ENTRY %Comp_spmd {","       custom_call_target=\"BarrierStart\"","   %tuple = (f32[8,4,1], (f32[8,4,1], u32[]{:S(2)}, u32[]{:S(2)}))","       tuple(%copy, %custom-call)","-  %all-to-all-start.1 = (((f32[8,4,1],","-      (f32[8,4,1], u32[]{:S(2)}, u32[]{:S(2)}))),","-      f32[8,4,1], u32[]{:S(2)}, u32[]{:S(2)})","+  %all-to-all-start.1 = (","+        (                   // BEGIN OF 0","+          (                 // BEGIN OF 0, 0","+            f32[8,4,1],     // 0, 0, 0","+            (               // BEGIN OF 0, 0, 1","+              f32[8,4,1],    // 0, 0, 1, 0","+              u32[]{:S(2)},  // 0, 0, 1, 1","+              u32[]{:S(2)}   // 0, 0, 1, 2","+            )               // END OF 0, 0, 1","+          )                 // END OF 0, 0","+        ),                  // END OF 0","+        f32[8,4,1],   // 1","+        u32[]{:S(2)}, // 2","+        u32[]{:S(2)}  // 3","+      )","       async-start(%tuple),","       output_to_operand_aliasing={","         {0,0,1,0}: (0, {1,0}),"],"additions":56,"deletions":10,"truncated":false},{"path":"third_party/xla/xla/hlo/analysis/hlo_alias_analysis_test.cc","lines":["@@ -1016,5 +1016,320 @@ ENTRY main {","             analysis.GetUniqueBufferAt(fusion));"," }"," ","+TEST_F(HloAliasAnalysisTest, DISABLED_MegachipLateBindingAsyncChain) {","+  absl::string_view hlo_string = R\"(","+HloModule Module","+","+async_wrapped_computation {","+  p0 = f32[16] parameter(0)","+  p1 = f32[16] parameter(1)","+  add = f32[16] add(p0, p1)","+  ROOT tuple = (f32[16]) tuple(add)","+}","+","+ENTRY main {","+  tc_operand0 = f32[16] parameter(0)","+  tc_operand1 = f32[16] parameter(1)","+","+  // async-start only binds tc_operand0 (subset!)","+  // Aliases both logical parameters.","+  // this is blocked by this the current implementation for async-done","+  // to be updated if it breaks other tests","+  async_start = ((f32[16]), (f32[16]), s32[]) async-start(tc_operand0),","+    calls=async_wrapped_computation, async_execution_thread=\"sparsecore\",","+    output_to_operand_aliasing={{0,0}: (0, {}), {0,1}: (1, {})}","+","+  // async-update binds tc_operand1 (late binding!)","+  async_update = ((f32[16], f32[16]), (f32[16])) async-update(async_start, tc_operand1)","+","+  ROOT async_done = (f32[16]) async-done(async_update)","+}","+)\";","+  ASSERT_OK_AND_ASSIGN(module_, ParseAndReturnVerifiedModule(hlo_string));","+  SCOPED_TRACE(module_->ToString());","+","+  HloAliasAnalysis& analysis = RunAnalysis();","+","+  const HloInstruction* tc_operand0 =","+      module_->entry_computation()->GetInstructionWithName(\"tc_operand0\");","+  const HloInstruction* tc_operand1 =","+      module_->entry_computation()->GetInstructionWithName(\"tc_operand1\");","+  const HloInstruction* async_start =","+      module_->entry_computation()->GetInstructionWithName(\"async_start\");","+  const HloInstruction* async_update =","+      module_->entry_computation()->GetInstructionWithName(\"async_update\");","+  const HloInstruction* async_done =","+      module_->entry_computation()->GetInstructionWithName(\"async_done\");","+","+  // 1. Verify async-start input aliasing (only logical operand 0 is passed","+  // physically)","+  EXPECT_EQ(analysis.GetUniqueBufferAt(tc_operand0),","+            analysis.GetUniqueBufferAt(async_start, {0, 0}));","+","+  // 2. Verify async-update input aliasing (forwarding previous operand)","+  EXPECT_EQ(analysis.GetUniqueBufferAt(async_start, {0, 0}),","+            analysis.GetUniqueBufferAt(async_update, {0, 0}));","+","+  // 3. Verify async-update newly bound operand aliasing","+  EXPECT_EQ(analysis.GetUniqueBufferAt(tc_operand1),","+            analysis.GetUniqueBufferAt(async_update, {0, 1}));","+","+  // 4. Verify async-done output aliasing with intermediate result","+  EXPECT_EQ(analysis.GetUniqueBufferAt(async_update, {1, 0}),","+            analysis.GetUniqueBufferAt(async_done, {0}));","+}","+","+TEST_F(HloAliasAnalysisTest, MegachipLateBindingAsyncChain_CrossCall_1) {","+  absl::string_view hlo_string = R\"(","+HloModule Module","+","+async_wrapped_computation {","+  p0 = f32[16] parameter(0)","+  p1 = f32[16] parameter(1)","+  add = f32[16] add(p0, p1)","+  ROOT tuple = (f32[16]) tuple(add)","+}","+","+ENTRY main {","+  tc_operand0 = f32[16] parameter(0)","+  tc_operand1 = f32[16] parameter(1)","+","+  // async-start only binds tc_operand0 (subset!). Aliases both logical parameters.","+  async_start = ((f32[16]), (), s32[]) async-start(tc_operand0),","+    calls=async_wrapped_computation, async_execution_thread=\"sparsecore\",","+    output_to_operand_aliasing={{1, 0}: (0, {})}","+","+  // async-update binds tc_operand1 (late binding!)","+  async_update = ((f32[16], f32[16]), (f32[16])) async-update(async_start, tc_operand1)","+","+  ROOT async_done = (f32[16]) async-done(async_update)","+}","+)\";","+  ASSERT_OK_AND_ASSIGN(module_, ParseAndReturnVerifiedModule(hlo_string));","+  SCOPED_TRACE(module_->ToString());","+","+  HloAliasAnalysis& analysis = RunAnalysis();","+","+  const HloInstruction* tc_operand0 =","+      module_->entry_computation()->GetInstructionWithName(\"tc_operand0\");","+  const HloInstruction* tc_operand1 =","+      module_->entry_computation()->GetInstructionWithName(\"tc_operand1\");","+  const HloInstruction* async_start =","+      module_->entry_computation()->GetInstructionWithName(\"async_start\");","+  const HloInstruction* async_update =","+      module_->entry_computation()->GetInstructionWithName(\"async_update\");","+  const HloInstruction* async_done =","+      module_->entry_computation()->GetInstructionWithName(\"async_done\");","+","+  // 1. Verify async-start input aliasing (only logical operand 0 is passed","+  // physically)","+  // this is from dataflow analysis","+  EXPECT_EQ(analysis.GetUniqueBufferAt(tc_operand0),","+            analysis.GetUniqueBufferAt(async_start, {0, 0}));","+","+  // 2. Verify async-update input aliasing (forwarding previous operand)","+  EXPECT_EQ(analysis.GetUniqueBufferAt(async_start, {0, 0}),","+            analysis.GetUniqueBufferAt(async_update, {0, 0}));","+","+  // 3. Verify async-update newly bound operand aliasing","+  EXPECT_EQ(analysis.GetUniqueBufferAt(tc_operand1),","+            analysis.GetUniqueBufferAt(async_update, {0, 1}));","+","+  // 4. Verify async-done output aliasing with intermediate result","+  EXPECT_EQ(analysis.GetUniqueBufferAt(async_update, {1, 0}),","+            analysis.GetUniqueBufferAt(async_done, {0}));","+","+  // 5. Verify async-done output aliasing with intermediate result","+  EXPECT_EQ(analysis.GetUniqueBufferAt(tc_operand0),","+            analysis.GetUniqueBufferAt(async_done, {0}));","+}","+","+TEST_F(HloAliasAnalysisTest, MegachipLateBindingAsyncChain_CrossCall_2) {","+  absl::string_view hlo_string = R\"(","+HloModule Module","+","+async_wrapped_computation {","+  p0 = f32[16] parameter(0)","+  p1 = f32[16] parameter(1)","+  add = f32[16] add(p0, p1)","+  ROOT tuple = (f32[16]) tuple(add)","+}","+","+ENTRY main {","+  tc_operand0 = f32[16] parameter(0)","+  tc_operand1 = f32[16] parameter(1)","+","+  // async-start only binds tc_operand0 (subset!). Aliases both logical parameters.","+  async_start = ((f32[16]), (), s32[]) async-start(tc_operand0),","+    calls=async_wrapped_computation, async_execution_thread=\"sparsecore\",","+    output_to_operand_aliasing={{1, 0}: (0, {})}","+","+  // async-update binds tc_operand1 (late binding!)","+  async_update = ((f32[16], f32[16]), ()) async-update(async_start, tc_operand1)","+","+  ROOT async_done = (f32[16]) async-done(async_update)","+}","+)\";","+  ASSERT_OK_AND_ASSIGN(module_, ParseAndReturnVerifiedModule(hlo_string));","+  SCOPED_TRACE(module_->ToString());","+","+  HloAliasAnalysis& analysis = RunAnalysis();","+","+  const HloInstruction* tc_operand0 =","+      module_->entry_computation()->GetInstructionWithName(\"tc_operand0\");","+  const HloInstruction* tc_operand1 =","+      module_->entry_computation()->GetInstructionWithName(\"tc_operand1\");","+  const HloInstruction* async_start =","+      module_->entry_computation()->GetInstructionWithName(\"async_start\");","+  const HloInstruction* async_update =","+      module_->entry_computation()->GetInstructionWithName(\"async_update\");","+  const HloInstruction* async_done =","+      module_->entry_computation()->GetInstructionWithName(\"async_done\");","+","+  // 1. Verify async-start input aliasing (only logical operand 0 is passed","+  // physically)","+  // this is from dataflow analysis","+  EXPECT_EQ(analysis.GetUniqueBufferAt(tc_operand0),","+            analysis.GetUniqueBufferAt(async_start, {0, 0}));","+","+  // 2. Verify async-update input aliasing (forwarding previous operand)","+  EXPECT_EQ(analysis.GetUniqueBufferAt(async_start, {0, 0}),","+            analysis.GetUniqueBufferAt(async_update, {0, 0}));","+","+  // 3. Verify async-update newly bound operand aliasing","+  EXPECT_EQ(analysis.GetUniqueBufferAt(tc_operand1),","+            analysis.GetUniqueBufferAt(async_update, {0, 1}));","+","+  // 4. Verify async-done output aliasing with intermediate result","+  EXPECT_EQ(analysis.GetUniqueBufferAt(tc_operand0),","+            analysis.GetUniqueBufferAt(async_done, {0}));","+}","+","+TEST_F(HloAliasAnalysisTest, MegachipLateBindingAsyncChain_CrossCall_3) {","+  absl::string_view hlo_string = R\"(","+HloModule Module","+","+async_wrapped_computation {","+  p0 = f32[16] parameter(0)","+  p1 = f32[16] parameter(1)","+  ROOT add = f32[16] add(p0, p1)","+}","+","+ENTRY main {","+  tc_operand0 = f32[16] parameter(0)","+  tc_operand1 = f32[16] parameter(1)","+","+  // async-start only binds tc_operand0 (subset!). Aliases both logical parameters.","+  async_start = ((f32[16]), (), s32[]) async-start(tc_operand0),","+    calls=async_wrapped_computation, async_execution_thread=\"sparsecore\",","+    output_to_operand_aliasing={{1}: (0, {})}","+","+  // async-update binds tc_operand1 (late binding!)","+  async_update = ((f32[16], f32[16]), ()) async-update(async_start, tc_operand1)","+","+  ROOT async_done = f32[16] async-done(async_update)","+}","+)\";","+  ASSERT_OK_AND_ASSIGN(module_, ParseAndReturnVerifiedModule(hlo_string));","+  SCOPED_TRACE(module_->ToString());","+","+  HloAliasAnalysis& analysis = RunAnalysis();","+","+  const HloInstruction* tc_operand0 =","+      module_->entry_computation()->GetInstructionWithName(\"tc_operand0\");","+  const HloInstruction* tc_operand1 =","+      module_->entry_computation()->GetInstructionWithName(\"tc_operand1\");","+  const HloInstruction* async_start =","+      module_->entry_computation()->GetInstructionWithName(\"async_start\");","+  const HloInstruction* async_update =","+      module_->entry_computation()->GetInstructionWithName(\"async_update\");","+  const HloInstruction* async_done =","+      module_->entry_computation()->GetInstructionWithName(\"async_done\");","+","+  // 1. Verify async-start input aliasing (only logical operand 0 is passed","+  // physically)","+  // this is from dataflow analysis","+  EXPECT_EQ(analysis.GetUniqueBufferAt(tc_operand0),","+            analysis.GetUniqueBufferAt(async_start, {0, 0}));","+","+  // 2. Verify async-update input aliasing (forwarding previous operand)","+  EXPECT_EQ(analysis.GetUniqueBufferAt(async_start, {0, 0}),","+            analysis.GetUniqueBufferAt(async_update, {0, 0}));","+","+  // 3. Verify async-update newly bound operand aliasing","+  EXPECT_EQ(analysis.GetUniqueBufferAt(tc_operand1),","+            analysis.GetUniqueBufferAt(async_update, {0, 1}));","+","+  // 4. Verify async-done output aliasing with intermediate result","+  EXPECT_EQ(analysis.GetUniqueBufferAt(tc_operand0),","+            analysis.GetUniqueBufferAt(async_done, {}));","+}","+","+TEST_F(HloAliasAnalysisTest, MegachipLateBindingAsyncChain_CrossOperands) {","+  absl::string_view hlo_string = R\"(","+HloModule Module","+","+async_wrapped_computation {","+  p0 = f32[16] parameter(0)","+  p1 = f32[16] parameter(1)","+  ROOT add = f32[16] add(p0, p1)","+}","+","+ENTRY main {","+  tc_operand0 = f32[16] parameter(0)","+  tc_operand1 = f32[16] parameter(1)","+","+  // async-start only binds tc_operand0 (subset!). Aliases both logical parameters.","+  async_start = ((), (), s32[]) async-start(),","+    calls=async_wrapped_computation, async_execution_thread=\"sparsecore\",","+    output_to_operand_aliasing={{1}: (1, {})}","+","+  // async-update binds tc_operand1 (late binding!)","+  async_update-0 = ((f32[16]), ()) async-update(async_start, tc_operand0)","+  async_update-1 = ((f32[16], f32[16]), ()) async-update(async_update-0, tc_operand1)","+","+  ROOT async_done = f32[16] async-done(async_update-1)","+}","+)\";","+  ASSERT_OK_AND_ASSIGN(module_, ParseAndReturnVerifiedModule(hlo_string));","+  SCOPED_TRACE(module_->ToString());","+","+  HloAliasAnalysis& analysis = RunAnalysis();","+","+  const HloInstruction* tc_operand0 =","+      module_->entry_computation()->GetInstructionWithName(\"tc_operand0\");","+  const HloInstruction* tc_operand1 =","+      module_->entry_computation()->GetInstructionWithName(\"tc_operand1\");","+  const HloInstruction* async_update_0 =","+      module_->entry_computation()->GetInstructionWithName(\"async_update-0\");","+  const HloInstruction* async_update_1 =","+      module_->entry_computation()->GetInstructionWithName(\"async_update-1\");","+","+  const HloInstruction* async_done =","+      module_->entry_computation()->GetInstructionWithName(\"async_done\");","+","+  // 1. Verify async-update input aliasing (forwarding previous operand)","+  EXPECT_EQ(analysis.GetUniqueBufferAt(async_update_0, {0, 0}),","+            analysis.GetUniqueBufferAt(async_update_1, {0, 0}));","+","+  // 2. Verify async-update newly bound operand aliasing","+  EXPECT_EQ(analysis.GetUniqueBufferAt(tc_operand0),","+            analysis.GetUniqueBufferAt(async_update_1, {0, 0}));","+","+  // 3. Verify async-update newly bound operand aliasing","+  EXPECT_EQ(analysis.GetUniqueBufferAt(tc_operand1),","+            analysis.GetUniqueBufferAt(async_update_1, {0, 1}));","+","+  // 4. Verify async-done output aliasing with intermediate result","+  EXPECT_NE(analysis.GetUniqueBufferAt(tc_operand0),","+            analysis.GetUniqueBufferAt(async_done, {}));","+  // 5. tc_operand1 should share the same buffer as async_done","+  EXPECT_EQ(analysis.GetUniqueBufferAt(tc_operand1),","+            analysis.GetUniqueBufferAt(async_done, {}));","+  // 6. tc_operand0 should not share the same buffer as tc_operand1","+  EXPECT_NE(analysis.GetUniqueBufferAt(tc_operand0),","+            analysis.GetUniqueBufferAt(tc_operand1));","+}","+"," }  // namespace"," }  // namespace xla"],"additions":315,"deletions":0,"truncated":false},{"path":"third_party/xla/xla/hlo/analysis/hlo_dataflow_analysis.cc","lines":["@@ -479,8 +479,6 @@ bool HloDataflowAnalysis::UpdateAsyncChainOutputValueSet(","       async_op->async_execution_thread(), execution_threads_);"," ","   if (!is_thread_included && async_op->opcode() == HloOpcode::kAsyncStart) {","-    // AsyncStart in a non-included has the output values defined, no need to","-    // propagate.","     return changed;","   }"," ","@@ -501,6 +499,13 @@ bool HloDataflowAnalysis::UpdateAsyncChainOutputValueSet(","             output_index.push_back(1);","           }","           output_index.insert(output_index.end(), index.begin(), index.end());","+          if (!ShapeUtil::IndexIsValid(async_op->shape(), output_index) ||","+              !ShapeUtil::Compatible(","+                  subshape,","+                  ShapeUtil::GetSubshape(async_op->shape(), output_index))) {","+            // if the output is not bound, or a subshape is not bound yet, skip.","+            return;","+          }"," ","           HloValueSet& value_set = GetMutableValueSet(async_op, output_index);","           if (value_set != root_value_set) {","@@ -515,8 +520,7 @@ bool HloDataflowAnalysis::UpdateAsyncChainOutputValueSet(","     const HloInstruction* operand = async_op->operand(0);","     ShapeUtil::ForEachSubshape(operand->shape(), [&](const Shape& subshape,","                                                      const ShapeIndex& index) {","-      if ((!subshape.IsArray() && !subshape.IsToken()) || index.empty() ||","-          index.front() != 1) {","+      if ((!subshape.IsArray() && !subshape.IsToken()) || index.front() != 1) {","         return;","       }","       const HloValueSet& operand_value_set = GetValueSet(operand, index);","@@ -528,6 +532,14 @@ bool HloDataflowAnalysis::UpdateAsyncChainOutputValueSet(","         output_index.insert(output_index.end(), index.begin() + 1, index.end());","       }"," ","+      if (!ShapeUtil::IndexIsValid(async_op->shape(), output_index) ||","+          !ShapeUtil::Compatible(","+              subshape,","+              ShapeUtil::GetSubshape(async_op->shape(), output_index))) {","+        // if the output is not bound, or a subshape is not bound yet, skip.","+        return;","+      }","+","       HloValueSet& value_set = GetMutableValueSet(async_op, output_index);","       if (value_set != operand_value_set) {","         value_set = operand_value_set;","@@ -557,9 +569,7 @@ bool HloDataflowAnalysis::UpdateAsyncStartValueSet("," bool HloDataflowAnalysis::UpdateAsyncUpdateValueSet(","     HloInstruction* async_update) {","   CHECK_EQ(async_update->opcode(), HloOpcode::kAsyncUpdate);","-  CHECK_EQ(async_update->shape(), async_update->operand(0)->shape());","   bool changed = false;","-","   // 1. Update bound operands (index 0)","   std::vector<const HloInstruction*> async_bound_operands =","       hlo_instruction_utils::async::GetAsyncBoundOperands(","@@ -841,8 +851,18 @@ bool HloDataflowAnalysis::UpdateParameterValueSet(HloInstruction* parameter) {","       CHECK(found_parent);","       need_phi = true;","     } else if (opcode == HloOpcode::kAsyncStart) {","+      const HloInstruction* async_done =","+          callsite.instruction()->async_chain_done();","+      CHECK(async_done != nullptr) << \"Async chain done not found for \""],"additions":19,"deletions":6,"truncated":false}],"additions":564,"deletions":19,"truncated":true,"file_count":5},"error":null,"fetched_at":"2026-07-14T09:32:01.379270+00:00"}